Time-consistent Physics-Informed Neural Networks for Autonomous ODEs/Lotka-Volterra/model_new.pt (torch, 88955 bytes, 14 tensors)

layers.layer_0.weight f4 [64, 3]
0	0x3d7f4972	0.062325902
1	0x3e062025	0.130982
2	0xbe158b82	-0.14604
3	0xbed378ef	-0.41303203
4	0x3df2236e	0.11823164
5	0x3ee2ab11	0.44271138
6	0x3d15e558	0.036595672
7	0xbe1ddd58	-0.15416467
8	0x3e57df1a	0.210812
9	0x3f2d1c39	0.6762119
10	0x3e599c27	0.21250974
11	0x3dd9ae2a	0.10628922
12	0xbeab2281	-0.33424762
13	0xbf0976e3	-0.5369703
14	0xbf464709	-0.7745214
15	0xbe8d42eb	-0.27590117
16	0x3ef16665	0.47148433
17	0x3eef64f6	0.46756715
18	0xbe827eb2	-0.25487286
19	0x3dd4909c	0.103791445
20	0x3f9b1e77	1.2118672
21	0xbf695912	-0.91151536
22	0x3dff48d4	0.12465063
23	0x3d464471	0.048405115
24	0x3d4b5177	0.049638238
25	0xbd13c622	-0.036077626
26	0x3f839801	1.0280763
27	0x3de6b389	0.11264712
28	0x3dbe38a8	0.0928815
29	0x3f91001e	1.1328161
30	0xbdb8f7d4	-0.090316445
31	0x3d8a503e	0.06753586
32	0x3f27659c	0.6538942
33	0x3e955aa2	0.2917071
34	0x3ea03074	0.31286967
35	0xbdcd3db9	-0.10021538
36	0xbf0a3a51	-0.53995234
37	0xbe0f54c9	-0.13997187
38	0xbed54252	-0.4165216
39	0xbf01d32f	-0.50712866
40	0xbf1f06cb	-0.6211974
41	0xbeb0a2cc	-0.34499204
42	0x3e308f6e	0.17242214
43	0x3f1099d6	0.56484735
44	0x3e76b534	0.24092561
45	0xbef1dc54	-0.4723841
46	0xbe735d48	-0.23766053
47	0xbcfeca0b	-0.031102201
48	0xbf1121cc	-0.56692195
49	0x3d778767	0.060431864
50	0x3f70e089	0.94092613
51	0x3d48a68f	0.048986968
52	0xbd9cc6c9	-0.07655103
53	0xbdbde2a0	-0.09271741
54	0x3f5eb464	0.86994004
55	0x3f8864a6	1.0655715
56	0xbd268c15	-0.040660936
57	0xbeb437ea	-0.3519891
58	0x3f4d7de9	0.8027025
59	0x3eafdc7b	0.343479
60	0xbf6dff0c	-0.92967296
61	0x3d8b8c3d	0.06813858
62	0xbdebfeb5	-0.11523191
63	0x3f77c5f3	0.9678642
64	0x3e6a3dc9	0.22875132
65	0xbd109959	-0.035302494
66	0xbef3edf7	-0.4764249
67	0xbd383082	-0.044968136
68	0xbd4a57df	-0.049400207
69	0x3f8e932e	1.1138666
70	0x3deb78db	0.11497661
71	0x3eccfe56	0.40037793
72	0x3efbb0ee	0.49158424
73	0xbd845bd2	-0.06462826
74	0x3cda54ce	0.026651766
75	0x3de2391a	0.110460475
76	0x3eb18545	0.3467199
77	0x3d90c760	0.07069278
78	0x3f8b8b6d	1.0901924
79	0x3f5fb22e	0.87381256
80	0x3e88664e	0.26640552
81	0xbe6c74d2	-0.23091438
82	0x3ecf2493	0.4045759
83	0xbcb83493	-0.022486007
84	0x3ebd4afb	0.36971268
85	0x3f0e355a	0.5555016
86	0x3eb81e70	0.35960722
87	0x3e9a1b2e	0.3009886
88	0x3e4cbbd7	0.1999353
89	0x3edd2bcb	0.43197474
90	0xbeade1a3	-0.3396121
91	0xbec08645	-0.3760244
92	0xbda2e8ca	-0.07954557
93	0xbebf336f	-0.37343928
94	0xbf1ebbca	-0.62005293
95	0xbf16009d	-0.58594686
96	0xbde07f4d	-0.10961781
97	0x3e213ba8	0.15745413
98	0xbec09626	-0.37614554
99	0x3f4bef01	0.79661566
100	0xbe780274	-0.24219686
101	0xbd8c26b0	-0.068433166
102	0x3ebf6a9b	0.3738602
103	0x3ca38de0	0.019965112
104	0xbe3219d7	-0.1739267
105	0x3c34253d	0.010995206
106	0xbe6c9b50	-0.23106122
107	0x3db0ad55	0.086268105
108	0xbf984e58	-1.1898909
109	0x3d192350	0.037387192
110	0xbe3539ff	-0.17697905
111	0x3e7b41ba	0.24536791
112	0x3e2e1b1b	0.17002527
113	0x3ec5de4e	0.38646168
114	0x3ec1a939	0.3782442
115	0x3d134f46	0.035964273
116	0x3ee36f65	0.44420925
117	0xbe8a576f	-0.27019832
118	0xbf047444	-0.5173991
119	0xbe220495	-0.1582206
120	0xbee3e666	-0.44511718
121	0xbd03dd14	-0.03219326
122	0xbf88c2e7	-1.068448
123	0xbedcb876	-0.43109483
124	0xbf0ccfd3	-0.55004615
125	0xbdefe136	-0.117128775
126	0x3e84fbe4	0.25973427
127	0xbc978367	-0.018495275
128	0xbec67c37	-0.38766643
129	0x3f1a3f85	0.60253173
130	0xbdb1e8c4	-0.08686975
131	0xbe5c2a9f	-0.21500634
132	0x3ea412a9	0.32045487
133	0x3f4aa01f	0.79150575
134	0x3e838f0b	0.2569507
135	0x3df593ae	0.11991058
136	0x3f24fe0b	0.6445014
137	0x3ea60ef2	0.32433277
138	0x3e8e58d1	0.27802137
139	0x3e070505	0.13185509
140	0x3fc647f9	1.5490714
141	0x3ecac23b	0.3960131
142	0x3e1bf41a	0.15229836
143	0x3e71b277	0.23603235
144	0x3d148ff0	0.036270082
145	0x3c0dc225	0.008652245
146	0xbee061e4	-0.43824685
147	0x3f63d5cc	0.88998103
148	0x3e495b4f	0.19663738
149	0x3e36dfbe	0.17858788
150	0xbe1e5bd0	-0.15464711
151	0xbf50f8fb	-0.81629914
152	0xbf1c7560	-0.611166
153	0xbe502c71	-0.20329453
154	0xbe0c5bd1	-0.137069
155	0x3d1e0231	0.03857631
156	0x3e93c2ce	0.28859562
157	0x3ed128ac	0.40851343
158	0x3ec55b3f	0.38546178
159	0xbf2b74ff	-0.66975397
160	0xbe576fac	-0.21038693
161	0x3dd759ed	0.10515199
162	0xbdd70bd4	-0.10500303
163	0xbf572c4f	-0.84051985
164	0xbeef525a	-0.46742517
165	0x3f3ac1ee	0.72952163
166	0x3e7f27d5	0.24917538
167	0x3f7233ee	0.9461049
168	0xbe8839a4	-0.26606476
169	0x3e26e0ef	0.16296743
170	0x3c0d9fb8	0.008644037
171	0x3ea577ac	0.32317865
172	0xbdfd9a8b	-0.12382992
173	0xbe97f75b	-0.29680905
174	0x3ee04473	0.43802223
175	0xbd9a0e39	-0.07522244
176	0x3ed83958	0.4223125
177	0x3f826e2f	1.0189875
178	0xbcabd79a	-0.02097683
179	0x3eb1dab8	0.34737182
180	0xbe6881b6	-0.22705731
181	0xbebd298f	-0.3694577
182	0xbecc832f	-0.39943835
183	0x3eb6fce5	0.35739818
184	0x3bdd07fb	0.006745336
185	0xbf1e7fc5	-0.6191371
186	0x3f0ae4dc	0.5425546
187	0x3f3d8bcc	0.7404144
188	0x3d8f15e7	0.069865994
189	0x3f74f5d7	0.9568762
190	0x3ca22cf3	0.019796824
191	0xbdd58ae6	-0.104268834

layers.layer_0.bias f4 [64]
0	0xbea9a818	-0.33136058
1	0x3d121dcd	0.03567295
2	0xbdd648b5	-0.104630865
3	0xbf856581	-1.0421602
4	0x3d9b97d4	0.07597318
5	0x3c06c6f6	0.008226147
6	0x3e36cabc	0.17850775
7	0xbf2e2c36	-0.6803621
8	0x3e9a02f1	0.3008037
9	0x3de78798	0.11305159
10	0x3f0a6f0a	0.5407568
11	0xbcf85d5c	-0.030317955
12	0x3e718750	0.23586774
13	0xbe6de3ce	-0.23231432
14	0x3f11f780	0.5701828
15	0xbe892856	-0.26788586
16	0x3f49c19a	0.7881104
17	0x3f131deb	0.57467526
18	0x3f3874f7	0.72053474
19	0xbdad946a	-0.08475573
20	0x3f56d5f4	0.83920217
21	0x3f68b0b3	0.9089462
22	0xbdf8ad08	-0.12142378
23	0xbf805113	-1.0024742
24	0x3ea5e453	0.3240076
25	0xbec34212	-0.38136345
26	0x3fd4d0ee	1.662626
27	0x3f2b361c	0.6687944
28	0x3ce26446	0.027635705
29	0xbee0a63c	-0.43876827
30	0x3ee435e0	0.44572353
31	0xbf84cff2	-1.037596
32	0xbeb83bbd	-0.35983077
33	0xbb8cfe92	-0.004302808
34	0x3ed3d1e0	0.4137106
35	0x3e28190f	0.16415809
36	0x3ed0e676	0.40800828
37	0x3ec923f4	0.39285243
38	0x3edf8475	0.43655744
39	0x3e0e4500	0.13893509
40	0xbe09c969	-0.13455738
41	0xbd7dd565	-0.061971087
42	0xbeeb058b	-0.45902666
43	0x3e6723b7	0.22572218
44	0xbe8216e2	-0.25408083
45	0xbeba6aaf	-0.36409518
46	0xbdf17cbf	-0.117913716
47	0xbebc0f4a	-0.36730415
48	0x3dbbf8a2	0.09178282
49	0xbf596569	-0.84920365
50	0xbc1a3916	-0.009413024
51	0xbd54d622	-0.051962025
52	0x3f1a45e4	0.60262895
53	0xbeb2e365	-0.34939113
54	0x3b28b709	0.0025743863
55	0xbf5a88c1	-0.8536492
56	0x3c0027a4	0.007821951
57	0xbed70253	-0.4199396
58	0x3dd6d58c	0.104899496
59	0x3dd8805b	0.10571357
60	0x3ed337eb	0.412536
61	0xbf04328a	-0.51639616
62	0xbd27fdd2	-0.041013546
63	0x3f69b62e	0.9129361

layers.layer_1.weight f4 [64, 64]
0	0x3de909bf	0.11378812
1	0xbccbf2f6	-0.024896126
2	0xbdbb0065	-0.091309346
3	0x3d854b4e	0.06508504
4	0x3c8c7893	0.017147338
5	0x3dd96645	0.106152095
6	0xbdc96d56	-0.09835307
7	0x3c35fb12	0.011107223
8	0x3e23fefa	0.16015235
9	0xbc3a854b	-0.011384319
10	0xbd9fedaa	-0.07809003
11	0x3e1b46e8	0.15163767
12	0xbd65c563	-0.056096446
13	0x3e448779	0.19192304
14	0xbceee0d2	-0.029159937
15	0xbd7bb290	-0.061449587
16	0xbdaff87f	-0.08592319
17	0x3cca4cb9	0.024694787
18	0x3c15cc7f	0.009142994
19	0x3e6eff7b	0.23339646
20	0xbdce34e4	-0.10068682
21	0xbd248348	-0.040164262
22	0xbd72cf11	-0.059279505
23	0xbd541b59	-0.051783893
24	0xbe487c91	-0.19578768
25	0xbc1e9f61	-0.009681554
26	0xbcfbb1d2	-0.03072444
27	0x3e2eb699	0.17061843
28	0xbcf6cc01	-0.030126574
29	0x3b3585ee	0.0027698237
30	0x3ccf844c	0.025331639
31	0x3d70c0cb	0.05877761
32	0x3d70af04	0.058760658
33	0x3d8db30f	0.06918918
34	0x3d1c35ce	0.03813725
35	0xbdce9be1	-0.10088325
36	0xbe3fd634	-0.18734056
37	0x3c356fa0	0.011073977
38	0xbe1d5b72	-0.15366915
39	0x3d43f1f9	0.047838185
40	0xbd5d2e56	-0.053999268
41	0x3d97f999	0.07420654
42	0xbd1ae8ca	-0.03781966
43	0xbe364780	-0.17800713
44	0xbe1c6cc1	-0.15275861
45	0x3da8339e	0.0821297
46	0x3d0f3ff9	0.03497312
47	0x3b6fa3db	0.0036566171
48	0xbd4c8f26	-0.049941204
49	0xbe4cc805	-0.19998176
50	0x3c2f84a2	0.0107127745
51	0xbdef216a	-0.11676295
52	0xbe14e578	-0.1454066
53	0x3c003abd	0.007826504
54	0xbc57347b	-0.013135071
55	0x3ca9a897	0.020710273
56	0xbd62ec90	-0.055401385
57	0x3ca2d4d7	0.01987688
58	0xbd41e3b2	-0.047336288
59	0x3d94f3dc	0.07273075
60	0xbda7a3fa	-0.08185573
61	0x3d3c0c96	0.04591044
62	0xbd3cccf9	-0.046093915
63	0x3b883d2b	0.0041576824
64	0x3d409213	0.047014307
65	0xbd3c0895	-0.045906622
66	0x3d2a58fa	0.04158876
67	0x3d8446ff	0.06458854
68	0xbd8e8530	-0.06958997
69	0x3e53c39f	0.20680092
70	0x3e0d45ca	0.13796154
71	0xbcca1446	-0.02466787
72	0xbd2b623d	-0.041841734
73	0xbd76cb7d	-0.060252655
74	0xbde5625c	-0.11200401
75	0x3cee8b40	0.029119134
76	0x3d150bfa	0.036388375
77	0xbceef148	-0.029167786
78	0xbc5e8cd6	-0.013583383
79	0xbd0f5dec	-0.03500168
80	0xbdcfd8b5	-0.101487555
81	0x3d7e8493	0.06213815
82	0xbde6d6ad	-0.11271415
83	0x3dced0b5	0.100984015
84	0x3d48e582	0.049047
85	0xbbe6f498	-0.007048201
86	0xbcd3f3a4	-0.025873013
87	0x3e26c442	0.16285804
88	0x3d2318f7	0.03981873
89	0x3df2d775	0.118575014
90	0xbd91199c	-0.07084963
91	0xbc740fca	-0.0148963425
92	0x3e054b28	0.13016951
93	0x3d08968f	0.03334671
94	0x3ca12e08	0.01967527
95	0x3d258e15	0.040418703
96	0xbe1ea11e	-0.15491149
97	0xbd11b109	-0.035569225
98	0xbdc577f9	-0.096420236
99	0x3d38ea07	0.04514506
100	0x3da1d1d1	0.079013474
101	0xbda4d877	-0.080491
102	0x3dda6ce1	0.10665298
103	0xbe56460a	-0.20925155
104	0xbd548dfa	-0.051893212
105	0x3cad36d3	0.021144306
106	0xbe0eb9f6	-0.13938126
107	0xbc531139	-0.012882524
108	0x3d433e97	0.047667112
109	0x3e4bb6b9	0.19893922
110	0x3de53685	0.111920394
111	0x3de38590	0.111094594
112	0xbd8dd3ee	-0.06925188
113	0x3e9155fc	0.28385913
114	0xbe59180c	-0.2120058
115	0x3bea27d2	0.00714586
116	0x3e093861	0.13400413
117	0x3c0c981f	0.00858119
118	0xbcf886ca	-0.03033771
119	0x3e6568af	0.22403215
120	0x3da5dfd6	0.08099334
121	0x3b018d6a	0.0019768127
122	0xbd979e1d	-0.074032046
123	0x3df3af8d	0.11898718
124	0xbd2235fc	-0.039602265
125	0xbd25856e	-0.04041045
126	0x3d50454a	0.05084733
127	0xbc509eaf	-0.012733146
128	0xbc98b9a8	-0.018643215
129	0x3e3642c8	0.17798913
130	0x3dd64925	0.1046317
131	0xbbc96e1d	-0.0061471597
132	0xbea0ac68	-0.31381536
133	0x3e8ffe74	0.2812382
134	0x3e0359c3	0.1282721
135	0xbea2d590	-0.3180356
136	0xbe124f55	-0.14288075
137	0xbc63d1f1	-0.013905034
138	0x3dfd6729	0.12373192
139	0x3c493d18	0.012282632
140	0xbdf19ede	-0.1179788
141	0xbe861e3b	-0.2619494
142	0x3e58f704	0.21187979
143	0xbdce505c	-0.10073921
144	0x3ddb384a	0.10704096
145	0xbda97859	-0.082749076
146	0xbcf5f0df	-0.030022083
147	0x3e723317	0.23652302
148	0xbe1ab1fa	-0.15106955
149	0x3e4284a9	0.18995918
150	0xbe2b22c6	-0.16712484
151	0xbe0fb6b8	-0.14034545
152	0x3d1e3883	0.038628113
153	0xbdaca5eb	-0.08430084
154	0x3d7b84e9	0.06140605
155	0xbd9e353a	-0.07724996
156	0x3e99a215	0.3000647
157	0x3d1af73d	0.03783344
158	0x3cb6bd4f	0.022307066
159	0xbe9138eb	-0.28363737
160	0xbd8fc1e6	-0.07019405
161	0x3e219ce7	0.1578251
162	0x3dd42421	0.103584535
163	0x3dbb7104	0.091524154
164	0x3d236285	0.039888877
165	0x3d4d92d4	0.050188854
166	0x3a878afc	0.0010341103
167	0xbe08a9af	-0.13345979
168	0xbd7be628	-0.06149879
169	0xbd86ebe0	-0.06587958
170	0xbe5e536c	-0.2171151
171	0xbe943b62	-0.28951555
172	0x3e3e45ad	0.18581267
173	0xbc846c56	-0.01616494
174	0x3d9063bd	0.070502736
175	0x3de05043	0.10952809
176	0xb9d1bd9b	-0.00040004854
177	0xbdcb3ee4	-0.09924105
178	0xbebd275e	-0.36944097
179	0xbe3954c6	-0.18098745
180	0x3e37949a	0.17927781
181	0xbd6a8686	-0.057257198
182	0xbd956c8b	-0.072960936
183	0xbdec253c	-0.115305394
184	0xbdac7cf3	-0.0842227
185	0xbe0857f6	-0.13314804
186	0x3d3599fb	0.0443363
187	0x3e3a5ce3	0.18199496
188	0x3e33489c	0.17508167
189	0x3e297968	0.16550219
190	0x3d1b7c50	0.03796035
191	0x3d352c57	0.04423174
192	0x3dd5d7fd	0.10441587
193	0x3e0a7d27	0.13524304
194	0xbcb0a108	-0.02156116
195	0x3e0fe76e	0.14053127
196	0xbd55b66b	-0.05217592
197	0x3da8a9ed	0.08235536
198	0xbd93a8f0	-0.07209957
199	0x3d7c05ca	0.06152896
200	0xbe4d0c86	-0.20024309
201	0xbdc891bc	-0.097934216
202	0xbd8b9db2	-0.06817187
203	0xbd096f87	-0.033553626
204	0x3e3a7975	0.18210395
205	0xbe562968	-0.20914233
206	0x3e5105d1	0.20412375
207	0xbdc4b2a6	-0.09604387
208	0x3ad828bd	0.0016491633
209	0xbe2ad768	-0.16683733
210	0x3df78c92	0.120873585
211	0xbcfbc0a5	-0.030731509
212	0x3d3d8e61	0.04627836
213	0x3da444dd	0.08020947
214	0x3e009694	0.12557441
215	0xbbbd4d78	-0.0057770573
216	0xbdbcd5d7	-0.09220474
217	0x3d014595	0.0315605
218	0xbd847069	-0.06466753
219	0x3dcd58e9	0.10026724
220	0x3d272cb8	0.04081413
221	0xbdc6fa14	-0.09715667
222	0xbdad730b	-0.08469208
223	0xbdbd4767	-0.092421345
224	0xbc9d3ebd	-0.019194955
225	0x3e04b4a8	0.1295954
226	0x3d198e82	0.03748942
227	0xbe02f8ec	-0.12790269
228	0xbd99a99a	-0.07503052
229	0xbd720899	-0.05909023
230	0x3e1d5b54	0.1536687
231	0xbe7ea99a	-0.24869385
232	0x3d906d6d	0.07052121
233	0xbd9a13d3	-0.075233124
234	0x3d025c0b	0.03182606
235	0xbdf44942	-0.11928035
236	0x3dd7a53f	0.10529565
237	0x3dd8be56	0.10583179
238	0x3bda2af7	0.006657954
239	0xbad959fb	-0.0016582602
240	0x3e175aac	0.14780682
241	0xbdca3599	-0.09873504
242	0xbe0b17ff	-0.13583373
243	0x3dacd050	0.0843817
244	0x3ddbfb5b	0.107413016
245	0xbc33e1fd	-0.010979173
246	0xbe892dbd	-0.26792708
247	0x3d018cb4	0.031628326
248	0xbb422189	-0.002962204
249	0xbe4cc709	-0.19997801
250	0xbc923c4e	-0.017851021
251	0x3e21202e	0.15734932
252	0x3d1db1f0	0.038499773
253	0x3e45877f	0.19289969
254	0x3e9a7665	0.30168453
255	0xbda66c17	-0.08126085

layers.layer_1.bias f4 [64]
0	0x3dc711dc	0.09720203
1	0xbd80574f	-0.06266653
2	0x3e2f0f66	0.17095718
3	0x3d72c29e	0.059267633
4	0x3d770fc1	0.06031776
5	0xbdad9734	-0.08476105
6	0xbdc63723	-0.09678485
7	0x3e80f9ff	0.25190732
8	0xbb3b06e7	-0.002853805
9	0xbd6c2236	-0.057649814
10	0x3e6d449b	0.23170702
11	0x3cd06cc5	0.02544249
12	0x3d68f08f	0.05687004
13	0x3ef824b0	0.4846549
14	0x3d724321	0.05914605
15	0x3d9d15a4	0.07670143
16	0xbefc409c	-0.49268043
17	0xbe0baf47	-0.13641082
18	0xbca386e6	-0.019961786
19	0xbe591a76	-0.212015
20	0x3ebd9650	0.37028742
21	0x3b835a00	0.0040085316
22	0x3e1e3ddf	0.1545329
23	0xbb611562	-0.003434502
24	0x3a541163	0.0008089749
25	0xbeab6f7b	-0.3348349
26	0xbde73e87	-0.11291223
27	0xbde1d737	-0.11027377
28	0xbdbb149a	-0.09134789
29	0x3e7b99f1	0.24570443
30	0xbdbd4cca	-0.09243162
31	0xbe167924	-0.14694649
32	0x3e725d38	0.23668373
33	0xbe311c1d	-0.1729588
34	0xbdc93334	-0.09824219
35	0x3d9b68f6	0.07588379
36	0x3ddbde64	0.10735777
37	0xbeb218bf	-0.34784505
38	0x3ebbc315	0.36672273
39	0x3e5cd8db	0.21567099
40	0xbd9e7d2f	-0.077387206
41	0x3bbfdb39	0.005854991
42	0x3db5632b	0.088568054
43	0x3de38254	0.111088425
44	0x3cea9946	0.02863754
45	0x3dbe3020	0.09286523
46	0x3d430357	0.047610607
47	0xbd8b54d0	-0.06803286
48	0xbd9fffe7	-0.078124814
49	0xbc7423c4	-0.014901105
50	0xbe50fdec	-0.20409364
51	0xbd736915	-0.059426386
52	0xbd11ced4	-0.035597637
53	0x3ead1cd4	0.33811057
54	0x3e9eb239	0.30995348
55	0xbe294faf	-0.16534303
56	0x3cff368c	0.03115394
57	0xbd2d9e73	-0.042387437
58	0x3d894938	0.067034185
59	0x3dd1fe90	0.10253632
60	0x3e405b52	0.18784836
61	0xbe6126e5	-0.21987493
62	0xbccee3c6	-0.025255095
63	0xbe1b3f03	-0.15160756

layers.layer_2.weight f4 [64, 64]
0	0xbb1a817a	-0.002357571
1	0xbd64c54e	-0.055852227
2	0x3d5ee714	0.054419592
3	0x3d8b2945	0.06794981
4	0xbe214993	-0.15750723
5	0xbd305c92	-0.043057032
6	0xbcbdaaea	-0.023152787
7	0xbd157429	-0.036487732
8	0xbe300d21	-0.17192508
9	0x3e162030	0.14660716
10	0xbb954798	-0.004555654
11	0xbdd8f543	-0.10593655
12	0xbc5e9ff1	-0.013587938
13	0x3da67004	0.08126834
14	0x3d629153	0.055314373
15	0xbd1f7078	-0.038925618
16	0xbdee1ac1	-0.11626197
17	0xbe327bdd	-0.17430063
18	0xbb71874c	-0.0036854325
19	0xbdc2cd7d	-0.0951185
20	0x3e43d9da	0.19126073
21	0x3d8d3b99	0.06896133
22	0xbd584585	-0.052800674
23	0xbd6a2d1a	-0.05717192
24	0x3e104bfc	0.14091486
25	0x3d21c0ad	0.03949039
26	0x3e010bd4	0.12602168
27	0x3ca08bae	0.019597854
28	0xbdc64b5d	-0.09682343
29	0xbe09e9e0	-0.13468122
30	0xbd91bf75	-0.07116596
31	0x3d5408b0	0.051766098
32	0x3d6c3bfa	0.057674386
33	0xbd7e383e	-0.062065355
34	0xbd0736fc	-0.03301142
35	0x3d4e66ec	0.050391123
36	0xbd38299b	-0.044961553
37	0x3dd66156	0.10467784
38	0x3d9caeeb	0.076505505
39	0x3caa864e	0.020815995
40	0xbdf0c617	-0.11756533
41	0xbe02f708	-0.12789547
42	0x3db478cf	0.08812105
43	0x3e240184	0.16016203
44	0x3da165c0	0.078807354
45	0x3e21b4da	0.15791646
46	0xbd67bb45	-0.05657508
47	0xbd416924	-0.04721941
48	0xbde365be	-0.1110339
49	0xbdf98752	-0.121840134
50	0xbd383987	-0.044976737
51	0xbdec3ca0	-0.11535001
52	0xbd05652d	-0.032567192
53	0x3d82772c	0.063703865
54	0x3da239b5	0.07921163
55	0xbcc2f7a4	-0.023799725
56	0x3daeb558	0.08530682
57	0xbd5b096e	-0.05347579
58	0x3c4fe59c	0.0126890205
59	0x3db3454f	0.08753454
60	0x3d8ebb31	0.06969298
61	0xbcab80ce	-0.020935442
62	0x3cf0c527	0.029390885
63	0xbdd83fc5	-0.10559038
64	0x3d0a1ac8	0.033716947
65	0x3e1246aa	0.14284769
66	0xbd87b2c7	-0.06625896
67	0x3d90195c	0.07036087
68	0x3e01268e	0.12612364
69	0xbd306bac	-0.043071434
70	0x3d342593	0.043981146
71	0xbe345168	-0.17609179
72	0xbd65e716	-0.056128584
73	0xbd9b5755	-0.07585017
74	0xbe476ac7	-0.19474326
75	0x3e05fda7	0.13085042
76	0x3cc7f3ef	0.024408309
77	0xbc1ca9e5	-0.00956199
78	0xbe0db9f0	-0.13840461
79	0xbda2c06b	-0.07946857
80	0x3e78dde4	0.24303395
81	0x3e5bdc30	0.21470714
82	0xbcade9aa	-0.021229584
83	0x3de926f3	0.11384382
84	0xbcb9b67c	-0.022670023
85	0xbdd58b26	-0.10426931
86	0xbdb645ca	-0.0890003
87	0xbdcc9358	-0.09989041
88	0x3d3ca895	0.04605921
89	0x3d7b7585	0.061391372
90	0xbdae9dc0	-0.08526182
91	0x3e8341ff	0.2563629
92	0x3d98e29a	0.07465096
93	0x3e235557	0.15950523
94	0x3dda4a56	0.1065871
95	0xbdf8cc83	-0.121483825
96	0xbddb09b1	-0.10695208
97	0x3d9be7f7	0.07612603
98	0x3cc791ac	0.024361454
99	0x3cab8fc8	0.020942584
100	0xbdb41e9b	-0.087949
101	0xbcc1ecea	-0.02367254
102	0xbe3802fe	-0.17969891
103	0x3dbd323d	0.09238098
104	0x3cf16f34	0.029471971
105	0xbc6d61c1	-0.014488638
106	0x3d652022	0.055938847
107	0x3d0ecb05	0.034861583
108	0xbd2c03bb	-0.041995745
109	0xbdc5af89	-0.09652621
110	0xbd87cd05	-0.06630901
111	0x3d82c63e	0.06385468
112	0xbb1326af	-0.0022453477
113	0x3d80741c	0.06272146
114	0x3db9bf12	0.09069647
115	0xbce84c20	-0.028356612
116	0x3d947599	0.072489925
117	0xbd584748	-0.052802354
118	0xbd8178f2	-0.063218966
119	0x3e3cd6f7	0.18441378
120	0xbd7540ca	-0.05987624
121	0x3ded9ee5	0.11602572
122	0xbb16cdf9	-0.0023010953
123	0xbe3ceaf4	-0.18449003
124	0x3c96b4d1	0.018396767
125	0x3c0c31d0	0.008556798
126	0xbce3ae15	-0.02779297
127	0xbd04250c	-0.032261893
128	0xbdeb3306	-0.11484341
129	0x3d6bd422	0.057575352
130	0xbd6eff3a	-0.05834887
131	0xbdd3f05e	-0.10348581
132	0xbc198e3a	-0.009372288
133	0x3d80035c	0.06250641
134	0x3d542e1f	0.051801797
135	0x3d45fdca	0.048337735
136	0xbe1824aa	-0.14857736
137	0xbdbbdc43	-0.09172871
138	0xbe18fb4e	-0.14939615
139	0xbe213425	-0.15742548
140	0x3b775d7e	0.0037744935
141	0xbd6cc577	-0.057805505
142	0x3e107eda	0.1411089
143	0x3d481316	0.048846327
144	0x3d97583e	0.07389878
145	0xbd466e6a	-0.048445143
146	0x3d48fa37	0.04906675
147	0x3d7e4ffb	0.062087994
148	0x3e150504	0.14552695
149	0xbdff5b67	-0.124686055
150	0x3e20768b	0.1567022
151	0xbdf5fb6f	-0.12010848
152	0x3b80d98f	0.003932185
153	0x3d48a003	0.048980724
154	0x3e2622d1	0.16224219
155	0xbd37209d	-0.044708837
156	0x3c8e48d4	0.017368712
157	0x3c2a68be	0.010400949
158	0x3d506e14	0.05088623
159	0xbd38261e	-0.044958226
160	0xbd2fe477	-0.04294249
161	0x3dda1a5c	0.10649559
162	0xbdbb0146	-0.09131102
163	0x3dc8b6a2	0.098004594
164	0xbe0c4f47	-0.13702117
165	0xbcfab262	-0.030602638
166	0xbd9f76c3	-0.07786324
167	0x3d7b1758	0.06130156
168	0xbe2d0d90	-0.16899705
169	0xbd181ec8	-0.03713873
170	0x3d9ad944	0.075609714
171	0xbdd59026	-0.10427885
172	0xbca18faa	-0.019721825
173	0x3d10bf13	0.035338473
174	0x3dc635c1	0.096782215
175	0x3e44b3e1	0.19209243
176	0x3c165e53	0.009177762
177	0x3de5470a	0.1119519
178	0xbd8cf1aa	-0.06882031
179	0x3dd5efcd	0.10446129
180	0x3d1d92f0	0.03847021
181	0x3da53372	0.08066453
182	0xbd530ed6	-0.05152782
183	0x3d83d66f	0.06437384
184	0xbd5cedba	-0.05393765
185	0xbd8696f4	-0.06571761
186	0x3ccc0adc	0.024907522
187	0xbd02c453	-0.03192551
188	0x3df1f505	0.11814312
189	0xbe23142c	-0.15925664
190	0xbe00b0d4	-0.12567455
191	0xbd407eeb	-0.04699604
192	0xbd16b8a2	-0.036797173
193	0xbe1c5835	-0.15268023
194	0x3e236193	0.1595519
195	0x3dd058b1	0.101731665
196	0xbce97a8a	-0.028500814
197	0xbdbdef9b	-0.09274217
198	0xbc9c6961	-0.019093217
199	0x3d8b82ea	0.06812079
200	0xbba67820	-0.005080238
201	0xbc8c40fa	-0.017120827
202	0x3dfb5af1	0.12273205
203	0x3db05723	0.0861037
204	0xbda2cf8c	-0.07949743
205	0xbe622673	-0.2208498
206	0xbe0d25ea	-0.13783994
207	0x3d3ebd52	0.04656727
208	0xbe70dd28	-0.23521864
209	0xbdb1ec7c	-0.08687684
210	0xbe8cf2aa	-0.27528888
211	0xbd60dfb9	-0.05490086
212	0x3e055354	0.13020068
213	0xbce6e64e	-0.02818599
214	0xbe157b0f	-0.14597724
215	0x3d92cefb	0.07168385
216	0x3ea25aa0	0.31709766
217	0x3d61d354	0.05513318
218	0x3d4b7cce	0.04967957
219	0x3cadb9bf	0.021206735
220	0xbc3d4288	-0.011551507
221	0xbda2f8d5	-0.07957617
222	0xbda734cb	-0.08164366
223	0x3df0cf34	0.11758271
224	0x3e4668d8	0.19375932
225	0x3cd415b1	0.02588925
226	0x3d5f3e2a	0.054502644
227	0xbda8226e	-0.08209692
228	0xbc3fecc9	-0.011714169
229	0xbe1004f7	-0.14064394
230	0x3d57d9f4	0.05269809
231	0xbd91b709	-0.07114989
232	0x3d4e80f9	0.050415967
233	0xbda6a0a1	-0.08136106
234	0xbc49b096	-0.012310168
235	0x3e312665	0.17299803
236	0xbcced037	-0.025245769
237	0x3dcefbac	0.10106596
238	0x3c9362e5	0.017991493
239	0xbde29fa7	-0.110656075
240	0x3e1402a2	0.1445413
241	0xbddfc16a	-0.10925563
242	0xbbe8e261	-0.0071070646
243	0xbdbe897d	-0.093035676
244	0xbd9fd56d	-0.078043796
245	0x3e3c404d	0.18383904
246	0x3d2dd580	0.042439938
247	0xbc644769	-0.013933041
248	0x3dae9843	0.08525135
249	0xbd3baa82	-0.045816906
250	0x3e0795e2	0.1324077
251	0xbdd75370	-0.10513961
252	0xbe5b9130	-0.21442103
253	0xbe7da94a	-0.2477161
254	0x3d5610c7	0.052262094
255	0x3d662171	0.056184236

layers.layer_2.bias f4 [64]
0	0x3d7063d3	0.05868895
1	0xbe198d4e	-0.1499531
2	0x3d31fd1f	0.043454286
3	0x3d8f66b1	0.07002009
4	0x3e877ee8	0.2646401
5	0x3e643bc1	0.2228842
6	0xbdf4351e	-0.11924194
7	0xbe06e37e	-0.13172719
8	0xbe10615b	-0.14099638
9	0x3e7c878c	0.24661082
10	0xbcdce76f	-0.026965825
11	0x3da128b8	0.078690946
12	0x3d22cb00	0.039744377
13	0x3d99a209	0.07501609
14	0xbe7d680c	-0.24746722
15	0x3e2e5bf9	0.17027272
16	0x3c474978	0.012163512
17	0x3eb8b6aa	0.36076862
18	0x3da3d04a	0.07998712
19	0xbe4a9c7f	-0.19786261
20	0x3db002d6	0.08594291
21	0xbd98aaa4	-0.07454422
22	0x3dba5a05	0.09099201
23	0xbcae036a	-0.021241862
24	0xbd109d81	-0.035306457
25	0x3e25cdc6	0.16191778
26	0x3e4782fb	0.19483559
27	0x3e73e1d5	0.23816617
28	0xbe7f67d4	-0.24941951
29	0xbd032e6c	-0.032026693
30	0xbe3b9e1b	-0.18322031
31	0xbd063b37	-0.032771315
32	0x3dadd0bd	0.08487079
33	0x3df6831d	0.120367266
34	0x3e11b755	0.14230092
35	0x3e8ed7c7	0.27899
36	0xbdb58771	-0.08863724
37	0x3d021385	0.031756897
38	0x3d6fd289	0.05855039
39	0x3e58935c	0.21149963
40	0xbd8269cb	-0.06367835
41	0xbd1775ed	-0.036977697
42	0xbe3bb97c	-0.18332475
43	0xbd8ab0fd	-0.06772039
44	0xbe91fc8c	-0.2851299
45	0x3e84cf54	0.2593943
46	0x3b5751d8	0.003285518
47	0x3d8c49d1	0.06850017
48	0x3a02de64	0.0004992245
49	0xbd2bc717	-0.041937914
50	0x3def0c6d	0.11672292
51	0x3ad471c5	0.0016208222
52	0xbd53e124	-0.051728383
53	0xbced6e5b	-0.028983286
54	0x3e12a8d9	0.14322223
55	0xbded2079	-0.11578459
56	0x3dd9eb19	0.106405444
57	0x3e77c969	0.24197926
58	0xbd27fb6a	-0.04101125
59	0x3d837721	0.064192064
60	0x3dfadc20	0.12249017
61	0x3d8f2c7f	0.06990909
62	0xbd4ac06c	-0.049499914
63	0x3d884eea	0.06655677

layers.layer_3.weight f4 [64, 64]
0	0x3c58c53e	0.01323062
1	0x3d3c23f8	0.04593274
2	0x3e1bdee5	0.15221746
3	0xbce90f14	-0.028449573
4	0x3df0f535	0.117655195
5	0x3ccb7fc5	0.024841199
6	0xbd8a9098	-0.0676586
7	0xbda6bde4	-0.081416875
8	0x3e0bb9a1	0.1364503
9	0x3d135046	0.035965227
10	0xbcd73ed9	-0.026275085
11	0xbcae4c5c	-0.021276645
12	0x3dac3777	0.084090166
13	0x3da4f3f3	0.08054342
14	0xbda15e54	-0.0787932
15	0xbe2a2617	-0.16616093
16	0x3d0777fa	0.033073403
17	0xbd2ead48	-0.042645723
18	0xbd2dc941	-0.04242826
19	0xbc0304a3	-0.007996711
20	0x3e06c26d	0.13160105
21	0xbd5da5a4	-0.054113045
22	0xbc42205e	-0.011848537
23	0xbdccc91a	-0.099992946
24	0x3e35b801	0.17745973
25	0xbe219617	-0.15779911
26	0xbdc13ae2	-0.09435059
27	0xbdb30303	-0.08740809
28	0xbe57cad3	-0.21073465
29	0x3d821bfd	0.063529946
30	0x3debd9e2	0.11516167
31	0xbdca92a3	-0.0989125
32	0x3c9f02d9	0.019410538
33	0xbcda506e	-0.02664968
34	0xbd130965	-0.03589763
35	0xbd656dee	-0.05601304
36	0xbd92e2d0	-0.07172167
37	0x3e322ba8	0.17399466
38	0xbe183f3c	-0.14867872
39	0x3dab18c6	0.083543345
40	0x3d6cfdef	0.057859357
41	0x3d7d16a4	0.06178917
42	0xbdca2aea	-0.098714665
43	0x3cba0286	0.022706281
44	0x3da22f64	0.07919195
45	0x3bcd7e45	0.006271156
46	0x3c83e0d3	0.016098415
47	0x3dc15cfb	0.09441563
48	0x3d3fad57	0.04679617
49	0xbd4b478e	-0.049628787
50	0xbe2fe7d3	-0.17178278
51	0x3d6aea59	0.057352398
52	0xbcd49fb3	-0.025955057
53	0x3e143563	0.1447349
54	0x3d52521b	0.051347833
55	0x3d576721	0.052588586
56	0xbcf60870	-0.03003332
57	0xbcadc737	-0.021213157
58	0xbe2959fb	-0.16538231
59	0xbdca4650	-0.09876692
60	0xbe085902	-0.13315204
61	0x3d7f57eb	0.062339704
62	0x3d70753b	0.05870555
63	0xbd06d4fb	-0.032917958
64	0xbd693f44	-0.0569451
65	0xbe4e103a	-0.20123377
66	0xbdb4e248	-0.08832222
67	0x3e65ca59	0.22440471
68	0x3dae198b	0.08500966
69	0x3e6107d3	0.21975641
70	0x3e1b0880	0.15139961
71	0x3d362e57	0.044477787
72	0xbe75e26d	-0.24012156
73	0x3ca49ee7	0.020095302
74	0x3cce1bce	0.025159743
75	0x3d1f5070	0.03889507
76	0x3e372ed5	0.17888959
77	0xbe1e42f4	-0.15455228
78	0xbe4afc70	-0.1982286
79	0x3d14962d	0.03627603
80	0xbe74e70e	-0.23916265
81	0x3ef14610	0.47123766
82	0xbe134f46	-0.14385709
83	0xbddb9000	-0.10720825
84	0xbd8e5c3d	-0.06951187
85	0x3beb7ff6	0.007186885
86	0x3cb1e3b3	0.02171502
87	0xbd93092a	-0.07179482
88	0xbcaa2b44	-0.020772584
89	0x3edb965f	0.42888162
90	0xbcbc3f3c	-0.022979371
91	0x3e24df09	0.16100706
92	0x3e5666e0	0.20937681
93	0x3cb7a789	0.022418754
94	0xbe23b333	-0.15986328
95	0x3e8f54b3	0.27994308
96	0xbe619749	-0.22030367
97	0x3e66bf86	0.22533998
98	0x3bc89bba	0.0061220797
99	0x3e812798	0.2522552
100	0xbd8db998	-0.06920165
101	0xbe1dec36	-0.15422139
102	0x3d99a4e1	0.07502151
103	0xbcf9f9c6	-0.030514609
104	0x3cd62da3	0.026144808
105	0xbe89356f	-0.2679858
106	0x3dd6f826	0.10496549
107	0x3e9c9c8c	0.30588186
108	0xbe4ed85a	-0.20199719
109	0xbda9e9f6	-0.08296578
110	0xbe0d33ad	-0.13789244
111	0x3e00c2c2	0.12574294
112	0xbe1b0c13	-0.15141325
113	0xbe0e3191	-0.13886096
114	0x3e603dff	0.2189865
115	0x3d07a624	0.03311743
116	0xbcebaefc	-0.028769962
117	0xbe3fb89f	-0.18722771
118	0xbc1aa9f4	-0.009439934
119	0x3d65d38b	0.056109946
120	0x3dbd0f51	0.09231437
121	0x3ea93d7e	0.33054727
122	0x3e4e27b3	0.20132332
123	0x3e8b71b6	0.27235192
124	0x3d509c42	0.05093027
125	0xbe8c397b	-0.27387604
126	0x3e00f9fe	0.12595364
127	0x3e3850b2	0.17999533
128	0xbe2d7881	-0.169405
129	0xbe876a71	-0.26448396
130	0xbe0040fb	-0.12524788
131	0xbd197183	-0.03746177
132	0xbdfce6c1	-0.123487
133	0x3deb184c	0.11479244
134	0x3dd45525	0.103678025
135	0x3dc2fa7f	0.095204346
136	0xbe291633	-0.16512375
137	0xbd587ff9	-0.05285642
138	0x3e3e009e	0.18554923
139	0x3dc75ac9	0.09734113
140	0xbd48b655	-0.04900201
141	0x3bd1b6f7	0.006399985
142	0xbc99171b	-0.018687775
143	0x3d0f83d4	0.03503783
144	0xbe56c166	-0.20972213
145	0x3ecf3c4d	0.40475693
146	0xbe251959	-0.1612295
147	0xbdc98e1a	-0.09841557
148	0xbdab3c55	-0.08361117
149	0xbe01ad04	-0.12663656
150	0x3e804bee	0.2505793
151	0xbc56e215	-0.013115426
152	0xbd5af83d	-0.053459395
153	0x3ed32752	0.41240937
154	0xbd037e12	-0.032102652
155	0x3e22e0b2	0.15906027
156	0x3e81faaf	0.2538657
157	0xbdb36804	-0.08760074
158	0xbdf6b2c6	-0.12045817
159	0x3c36c4c0	0.011155307
160	0xbdfaa791	-0.12238992
161	0x3da8cc02	0.082420364
162	0x3dba4607	0.09095388
163	0x3c2d08ee	0.010561211
164	0x3cba61ac	0.022751652
165	0xbe130307	-0.14356624
166	0x3c966fe5	0.018363902
167	0x3d638646	0.055547975
168	0x3e5c8eab	0.21538799
169	0xbe466b4a	-0.19376865
170	0x3e960f2c	0.2930845
171	0x3e3879c1	0.18015195
172	0xbdf33329	-0.118749924
173	0xbe05d00a	-0.13067642
174	0xbe29b9bb	-0.16574757
175	0x3d41772d	0.047232796
176	0xbe22ef6b	-0.15911643
177	0xbe25cbf6	-0.16191086
178	0x3e126936	0.14297947
179	0x3e359cd8	0.17735612
180	0xbd7c2229	-0.061556015
181	0xbc9f053c	-0.019411676
182	0xbce54669	-0.027987676
183	0xbdf85a68	-0.121266186
184	0x3d2c40c0	0.042053938
185	0x3e1f2d56	0.15544638
186	0x3e6418b8	0.22275054
187	0x3db05a81	0.08611012
188	0x3dd66c90	0.104699254
189	0xbe161d5f	-0.14659642
190	0x3e78603a	0.24255458
191	0x3e091a7d	0.1338901
192	0xbba7afd1	-0.0051173945
193	0xbdb5aa86	-0.088704154
194	0xbe1b2b42	-0.1515322
195	0xbc8de7ef	-0.017322509
196	0x3cc67542	0.024225835
197	0x3c21f845	0.009885852
198	0x3e1e3e37	0.1545342
199	0x3daf1173	0.0854825
200	0xbe1841a9	-0.14868797
201	0x3a7c845b	0.00096327596
202	0x3a8e8e29	0.0010876107
203	0xbe009f72	-0.12560824
204	0x3e0e452a	0.13893571
205	0xbe083c64	-0.13304287
206	0x3db4f150	0.08835089
207	0x3da37a23	0.0798228
208	0xbe5743a9	-0.21021904
209	0x3ed8b215	0.42323366
210	0xbe4d0d10	-0.20024514
211	0xbe01e0b8	-0.1268338
212	0xbe4a5f7d	-0.19762988
213	0x3d2b54ec	0.041829035
214	0x3e6e0c53	0.23246889
215	0x3e467111	0.19379069
216	0xbdc281ee	-0.09497438
217	0x3e1950f8	0.14972293
218	0x3c9a354d	0.018824244
219	0x3e218bde	0.15776011
220	0x3e434258	0.19068277
221	0x3e1689c1	0.14700986
222	0xbd258dbf	-0.040418383
223	0x3d026e00	0.031843185
224	0xbe052857	-0.1300367
225	0x3d2dbc52	0.042415924
226	0x3c8d65d2	0.017260466
227	0x3e178090	0.14795136
228	0x3b8088eb	0.003922572
229	0xbe227951	-0.15866591
230	0xbd7957cd	-0.06087475
231	0x3d90a762	0.07063176
232	0x3dbd7ad0	0.0925194
233	0xbe5cdc85	-0.21568497
234	0x3ea3a04b	0.3195823
235	0x3e638f85	0.22222717
236	0x3ded26d0	0.115796685
237	0xbe605147	-0.21906005
238	0xbbd0d7dd	-0.006373389
239	0xbca7cdbb	-0.020483842
240	0xbde74616	-0.11292665
241	0xbca2b5db	-0.019862106
242	0x3e8d39a8	0.2758305
243	0x3e551a3f	0.20810793
244	0xbe048879	-0.12942685
245	0xbdeac95a	-0.11464186
246	0x3d00e3af	0.031467136
247	0xbccc7f92	-0.024963174
248	0x3e64b955	0.22336324
249	0x3ddd1fbf	0.10797071
250	0x3e886e29	0.26646546
251	0x3d61ecdf	0.05515754
252	0x3e8307f9	0.2559202
253	0xbd973d7a	-0.073847726
254	0x3d23404b	0.039856236
255	0xbc85fd19	-0.016356038

layers.layer_3.bias f4 [64]
0	0x3d62c700	0.055365562
1	0x3e2aa9f7	0.16666399
2	0xbdc6d8aa	-0.09709294
3	0x3bfb21c8	0.007663939
4	0xbe4e53c4	-0.20149142
5	0x3d836587	0.06415849
6	0x3d8231f7	0.06357186
7	0xbe86e6d6	-0.2634799
8	0xbddd16db	-0.10795375
9	0xbcb52b47	-0.022115363
10	0x3d59d87f	0.053184982
11	0x3dbd9cc8	0.09258419
12	0xbd2695b0	-0.040670097
13	0x3ce3aa3f	0.02779114
14	0xbd73a829	-0.059486542
15	0xbd9abd84	-0.075556785
16	0xbe0f188e	-0.1397421
17	0x3c109daa	0.008826653
18	0x3d861603	0.06547167
19	0xbdd1d2e1	-0.102453
20	0xbc11a86f	-0.008890255
21	0xbe5996b7	-0.212489
22	0x3e21a64b	0.15786092
23	0xbe3623bc	-0.17787069
24	0xbcf5d10a	-0.030006904
25	0x3d01a28b	0.031649154
26	0xbd970b4d	-0.07375202
27	0x3e3bcb5d	0.18339296
28	0xbe1aa3e4	-0.15101582
29	0x3da3e07a	0.080018
30	0x3e2d1f6b	0.16906516
31	0x3c952844	0.018207677
32	0xbe8857aa	-0.26629382
33	0x3d915031	0.070953734
34	0xbe45c4e8	-0.19313395
35	0x3d067b30	0.032832325
36	0x3dad219e	0.084536776
37	0x3dba1d69	0.09087641
38	0x3e8e7b37	0.2782838
39	0xbe0b3d44	-0.1359759
40	0x3dc6fc1f	0.09716057
41	0xbbdffd8b	-0.0068356446
42	0xbdf6f2ff	-0.120580666
43	0x3e439633	0.19100265
44	0xbd2a7ec7	-0.04162481
45	0xbd572e74	-0.052534536
46	0xbea108b0	-0.3145194
47	0x3ddaf521	0.10691286
48	0x3e87c845	0.2651998
49	0x3df45bf7	0.119316034
50	0x3d131098	0.035904497
51	0xbc3e1d56	-0.011603674
52	0x3e75ebfb	0.240158
53	0xbdc2ebb5	-0.09517614
54	0x3db0a1a3	0.0862458
55	0x3da92dfc	0.08260724
56	0xbe113f23	-0.14184241
57	0xbe0eb4ff	-0.13936232
58	0xbd568506	-0.052372955
59	0xbe3030bc	-0.1720609
60	0xbd8881cf	-0.06665384
61	0x3e4000e2	0.18750337
62	0xbd93065d	-0.07178948
63	0xbda17b53	-0.0788485

layers.layer_4.weight f4 [64, 64]
0	0xbd8f1f0b	-0.06988343
1	0xbddff77b	-0.10935875
2	0x3df4b7cf	0.11949121
3	0xbd5d3464	-0.05400504
4	0x3cdf2f43	0.027244216
5	0x3c09d21e	0.008411912
6	0x3b9a5ec4	0.004711004
7	0xbd896f08	-0.06710631
8	0xbdcd9e67	-0.100399785
9	0xbda4490f	-0.08021747
10	0x3d1ac301	0.037783626
11	0x3c8a82a4	0.016907997
12	0x3c5b8579	0.013398522
13	0xbdec576e	-0.115401134
14	0x3e099cd0	0.13438725
15	0xbe2399a1	-0.15976574
16	0xbe1733b3	-0.14765815
17	0x3d33354c	0.043752
18	0xbd83539a	-0.0641243
19	0xbd47c175	-0.04876848
20	0xbd52dc77	-0.051479783
21	0x3c657a41	0.014006198
22	0xbd45c1d5	-0.048280556
23	0xbd4c5a80	-0.049890995
24	0xbe161622	-0.1465688
25	0x3d2dd1b0	0.0424363
26	0xbdef036b	-0.11670574
27	0x3d3fb9a8	0.046807915
28	0x3cde9b41	0.02717364
29	0xbe1c06e0	-0.15236998
30	0x3d248ef9	0.04017541
31	0xbd031673	-0.03200383
32	0xbcbca263	-0.02302665
33	0x3b096f5d	0.0020970919
34	0xbdf86ecb	-0.12130507
35	0xbdfd7d2a	-0.12377389
36	0x3d27bf85	0.04095413
37	0xbc81c063	-0.015838807
38	0x3d47b710	0.048758566
39	0x3c57e54a	0.013177225
40	0xbd789dfa	-0.060697533
41	0x3d911ca6	0.070855424
42	0x3daa386f	0.08311545
43	0x3c89b550	0.01681009
44	0x3d9cb136	0.07650988
45	0x3d8a048a	0.06739147
46	0x3cab3b81	0.020902397
47	0xbdc6a520	-0.09699464
48	0x3e056a47	0.13028823
49	0xbd858b59	-0.06520719
50	0x3dc5fa79	0.096669145
51	0x3cce7cb3	0.025205946
52	0x3d8c6531	0.06855238
53	0xbc041140	-0.008060753
54	0xbc9c173c	-0.019054048
55	0xbdcefd97	-0.10106962
56	0xbb8a7d2a	-0.0042263465
57	0xbd393697	-0.045218077
58	0x3c33d8f2	0.010977017
59	0x3e0382e7	0.12842904
60	0xbbd49570	-0.006487541
61	0x3e4df389	0.20112433
62	0x3e23f001	0.16009523
63	0x3dcc367a	0.09971328
64	0x3d61b028	0.055099636
65	0x3c4b6af5	0.012415637
66	0xbd55d782	-0.052207477
67	0x3a32a53f	0.0006814785
68	0x3ddb773a	0.107161
69	0xbdf411c8	-0.11917454
70	0x3d3bba40	0.04583192
71	0x3dfca7fd	0.12336729
72	0x3d6d7714	0.05797489
73	0xbe15a9a4	-0.14615494
74	0x3da0ab22	0.07845141
75	0x3d44aaff	0.048014637
76	0x3d2426aa	0.040075935
77	0x3db7741e	0.089576945
78	0xbdb34fb7	-0.08755439
79	0x3b1c459e	0.0023845206
80	0xbd41d2f9	-0.04732034
81	0x3d163c09	0.036678348
82	0x3d724d15	0.059155542
83	0xbdb70a10	-0.08937466
84	0x3d896bb0	0.06709993
85	0xbd884547	-0.066538386
86	0xbcd66b42	-0.026174191
87	0x3b55afbe	0.0032605971
88	0xbdcd81fa	-0.10034557
89	0xbd7a3d4b	-0.06109361
90	0xbdff1e76	-0.12456982
91	0x3d8a5252	0.067539826
92	0xbd23a772	-0.03995461
93	0xbca75e37	-0.020430667
94	0xbdafbe56	-0.085812256
95	0xbbf2d120	-0.0074101835
96	0xbdd9eff0	-0.106414676
97	0xbcde10ff	-0.027107714
98	0x3d02eb00	0.031962395
99	0xbafc3049	-0.0019240464
100	0x3dbab421	0.09116388
101	0xbdb2d563	-0.087321065
102	0x3cbec524	0.023287363
103	0xbe0ea767	-0.13931046
104	0x3dbe0f5f	0.092802756
105	0x3de1336c	0.10996136
106	0xbdb56d16	-0.08858697
107	0x3d4d9601	0.050191883
108	0xbdf52530	-0.119699836
109	0x3db5f20b	0.08884057
110	0x3dcc759f	0.09983372
111	0xbded656f	-0.115916125
112	0x3e25e048	0.16198838
113	0xbd267045	-0.040634412
114	0x3dc34366	0.095343396
115	0x3b5b366e	0.003344919
116	0x3cf6d162	0.030129138
117	0xbca4361c	-0.020045333
118	0xbd039ca2	-0.0321318
119	0x3d4a8351	0.04944164
120	0xbdc70eba	-0.09719606
121	0x3d916871	0.07099999
122	0x3c0a60b2	0.0084459055
123	0x3e2c9836	0.16854939
124	0xbde162b8	-0.11005157
125	0x3dff2528	0.12458259
126	0x3de4db10	0.11174595
127	0x3bed2abc	0.0072377604
128	0xbd4af113	-0.049546313
129	0x3e437d5a	0.19090787
130	0x3d8e94e6	0.06961994
131	0x3d3c1315	0.045916636
132	0x3c6b282d	0.01435284
133	0x3dea65a8	0.11445171
134	0x3d5a00f5	0.05322357
135	0xbe360770	-0.17776275
136	0x3dd44a43	0.10365727
137	0xbc714240	-0.014725268
138	0xbb80c13b	-0.003929285
139	0xbdd8038d	-0.10547552
140	0x3d6574f1	0.056019727
141	0xbd125600	-0.035726547
142	0xbd981e5d	-0.07427666
143	0x3d3ba552	0.04581196
144	0x3e3fd2af	0.18732713
145	0x3e0d76cf	0.13814853
146	0x3dbacb9f	0.09120869
147	0xbd7afef4	-0.0612783
148	0x3e2c3349	0.16816439
149	0xbd33ed15	-0.04392727
150	0x3e59523f	0.2122278
151	0x3d4fd91b	0.050744157
152	0xbd3ce0e3	-0.046112906
153	0xbd89072b	-0.0669082
154	0x3d3042a7	0.043032315
155	0x3e79b0b5	0.24383815
156	0x3d71cefb	0.059035283
157	0xbd95909a	-0.07302971
158	0xbde00866	-0.10939102
159	0xbc4c3972	-0.012464868
160	0xbe1c826c	-0.15284127
161	0x3dae3546	0.08506255
162	0x3def7e8c	0.11694059
163	0x3c61db6b	0.0137852235
164	0x3c9f844e	0.019472267
165	0x3dc6ba9b	0.09703561
166	0xbda69fb6	-0.08135931
167	0x3df6f927	0.12059241
168	0x3dedb5b8	0.11606926
169	0x3c9a58a8	0.018841103
170	0xbdf8cce2	-0.12148453
171	0xbe068b87	-0.13139163
172	0x3c52f0ee	0.012874825
173	0x3da3bc16	0.07994859
174	0x3e1a1923	0.15048651
175	0xbe142168	-0.14465868
176	0xbd3a36a6	-0.045462273
177	0x3d25f215	0.04051407
178	0x3d95c2d4	0.07312551
179	0xbd8c6b0e	-0.068563566
180	0x3e26efa4	0.16302353
181	0xbcdd1593	-0.026987826
182	0x3e0cd7a3	0.13754134
183	0xbd3b6052	-0.045746155
184	0xbdab073f	-0.083509915
185	0x3dfe3d53	0.124140404
186	0xbdbc6b18	-0.09200114
187	0x3c4ebf49	0.012618848
188	0xbce70647	-0.028201235
189	0xbe39f64d	-0.18160363
190	0xbd3fec73	-0.046856355
191	0xbde8f25f	-0.113743536
192	0xbd423df3	-0.04742236
193	0x3e37e119	0.17956962
194	0x3d001c9d	0.031277288
195	0xbda5a110	-0.08087361
196	0x3db7035c	0.089361876
197	0xbc96dfbd	-0.018417234
198	0x3dc80815	0.097671665
199	0xbe5f6e7b	-0.21819489
200	0xbcb69228	-0.02228649
201	0xbc154777	-0.009111277
202	0xbdd55081	-0.104157455
203	0x3ca0ff4f	0.01965299
204	0x3d1fd94f	0.0390256
205	0x3d92f798	0.07176131
206	0x3cab8e23	0.0209418
207	0x3e0c6e8d	0.13714047
208	0x3dd84b02	0.105611816
209	0x3e150e6a	0.1455628
210	0x3dd97b38	0.10619205
211	0xbd92836b	-0.07153972
212	0x3e023d84	0.12718779
213	0x3dc92ac1	0.09822608
214	0x3e0c94c2	0.13728622
215	0x3dc3d332	0.09561767
216	0x3da5222a	0.08063157
217	0x3d343905	0.04399969
218	0x3d3e5f22	0.046477444
219	0x3e480fc6	0.19537267
220	0x3d183631	0.037161056
221	0x3d42966a	0.047506727
222	0x3b63e2df	0.0034772677
223	0x3e22e5be	0.15907952
224	0xbe0a68a1	-0.13516475
225	0xbd4f5858	-0.05062136
226	0x3e113589	0.14180578
227	0x3d7f547d	0.062336434
228	0x3dc01598	0.09379119
229	0x3e140381	0.14454462
230	0xbc98522b	-0.018593868
231	0xb9fc2943	-0.00048095928
232	0xbd037be4	-0.032100573
233	0x3e627ac0	0.22117138
234	0xbd7461b5	-0.059663493
235	0x3c42efa7	0.011897958
236	0x3e1724a3	0.1476007
237	0xbdb20ebe	-0.08694218
238	0x3de8529d	0.11343882
239	0x3d98bd98	0.07458037
240	0x3d3c16bc	0.04592012
241	0x3da0b6e9	0.07847387
242	0xbc78de9c	-0.015189793
243	0x3d59369e	0.053030603
244	0x3e806244	0.2507497
245	0x3d78f184	0.060777202
246	0x3d92b96a	0.07164271
247	0x3b2f59bb	0.0026756364
248	0x3d090b77	0.0334582
249	0xbd546380	-0.051852703
250	0x3dd524d3	0.10407414
251	0x3c25940f	0.010106101
252	0xbdafbcfc	-0.08580968
253	0xbd935f8c	-0.071959585
254	0xbe04f349	-0.12983431
255	0xbd6fb63b	-0.058523398

layers.layer_4.bias f4 [64]
0	0xbd5cd7c8	-0.053916723
1	0x3d0fa18b	0.03506617
2	0xbe4369ac	-0.1908328
3	0xbdc5deb3	-0.09661617
4	0xbcfe6161	-0.031052293
5	0xbd9fc27e	-0.07800768
6	0xbe400882	-0.18753245
7	0x3dae891b	0.085222445
8	0xbe1f534d	-0.1555912
9	0x3e3cec6e	0.18449566
10	0x3be32851	0.0069322963
11	0xbc15ef00	-0.00915122
12	0x3dd42016	0.103576824
13	0x3e3d6e8c	0.18499202
14	0xbde8e370	-0.11371505
15	0xbd92243b	-0.07135817
16	0xbe7251f4	-0.23664075
17	0xbd9420e8	-0.07232839
18	0x3d2d4ea7	0.042311337
19	0xbe4717c3	-0.19442658
20	0x3ecc07d0	0.3984971
21	0xbd88828b	-0.06665524
22	0x3c7eae38	0.015544467
23	0x3d264cef	0.040600713
24	0xbe78e217	-0.24304996
25	0xbe4c447f	-0.19948004
26	0xbc298d9b	-0.010348703
27	0xbe6f7b04	-0.2338677
28	0xbe58076a	-0.21096578
29	0x3d7222bd	0.05911516
30	0x3e8dfe1e	0.2773294
31	0x3c67f268	0.014156915
32	0x3db69807	0.08915716
33	0x3d911898	0.07084769
34	0x3d0ff34a	0.035144128
35	0xbeb537e8	-0.35394216
36	0x3e47ec72	0.1952379
37	0x3dde3685	0.108502425
38	0xbdacda08	-0.08440024
39	0xbd89e944	-0.06733945
40	0x3dcff8ee	0.101549014
41	0xbe1bdbd3	-0.15220575
42	0x3ee19f78	0.44066978
43	0x3d9d0188	0.07666308
44	0x3e2a5180	0.16632652
45	0x3ea1218a	0.314709
46	0x3c433a4b	0.011915754
47	0xbd7e22ea	-0.062045015
48	0x3e180f8c	0.1484968
49	0x3e8018d5	0.25018945
50	0x3d66ebef	0.056377348
51	0x3c83d3c6	0.016092192
52	0x3e951876	0.29120225
53	0x3cba9a63	0.022778695
54	0xbc85deaf	-0.016341535
55	0x3d9af33e	0.07565926
56	0x3d6907c2	0.056892164
57	0xbc79a2ab	-0.015236537
58	0xbe05baea	-0.13059583
59	0x3d5b83b8	0.053592414
60	0x3d591719	0.053000543
61	0xbe2ecf7c	-0.17071337
62	0xbc87700c	-0.01653292
63	0x3ea84f6b	0.3287309

layers.layer_5.weight f4 [64, 64]
0	0xbb41109f	-0.002945937
1	0x3d9ece15	0.07754151
2	0x3dd1e85b	0.102493964
3	0x3d8ef696	0.06980626
4	0xbc4c2fbd	-0.012462554
5	0x3e0388ed	0.12845202
6	0x3d03b5d0	0.03215581
7	0x3c60dfb4	0.01372521
8	0x3dc355c4	0.09537843
9	0xbc3492f5	-0.011021365
10	0xbb9962b8	-0.0046809576
11	0x3db0a317	0.08624857
12	0xbd6dd7ee	-0.058067255
13	0x3cfb0881	0.030643703
14	0x3e361264	0.17780453
15	0x3cb7e0fb	0.022446146
16	0x3d39bf69	0.04534856
17	0xbca97ddb	-0.020689895
18	0xbc6defb4	-0.014522482
19	0xbc931c21	-0.017957749
20	0xbe02fe50	-0.12792325
21	0xbe19c2da	-0.15015736
22	0xbbf6e64c	-0.0075347777
23	0xbdfc4ea0	-0.12319684
24	0x3dacd936	0.08439867
25	0x3e26ce74	0.16289693
26	0xbb2fb950	-0.0026813336
27	0xbd87e153	-0.06634774
28	0x3dd59b46	0.10430007
29	0x3cfc8a05	0.030827532
30	0xbd08c042	-0.033386476
31	0x3cb0fdbf	0.02160537
32	0x3d49a6e6	0.049231432
33	0xbd07dedc	-0.03317152
34	0x3dd86d47	0.10567718
35	0x3c17b37d	0.009259102
36	0xbe4ec731	-0.20193173
37	0x3d882cd3	0.066491745
38	0xbc9526d9	-0.018207
39	0xbd9c9568	-0.076456845
40	0xbd5f46bb	-0.054510813
41	0x3dc4c72c	0.096083015
42	0xbcb609f4	-0.022221543
43	0xbc79dc40	-0.015250266
44	0xbd72f81a	-0.05931864
45	0xbd52d772	-0.051474996
46	0x3e0e810f	0.1391642
47	0x3d86c006	0.06579594
48	0xbc5119ed	-0.012762529
49	0xbde216f3	-0.110395335
50	0xbdbc4760	-0.09193301
51	0xbcbf3257	-0.023339434
52	0xbe380749	-0.17971529
53	0x3df7502c	0.120758384
54	0x3dc19a51	0.09453262
55	0xbc43ec1a	-0.0119581465
56	0xbdcb0290	-0.09912598
57	0xbd969df0	-0.07354343
58	0x3dca137d	0.09866998
59	0xbe0e4721	-0.13894321
60	0x3d8fce01	0.07021714
61	0x3e28aa63	0.16471247
62	0xbc9cc92a	-0.019138891
63	0xbc5d8041	-0.013519348
64	0x3d89b9f6	0.06724922
65	0xbc48d828	-0.012258567
66	0x3cfc4eaf	0.030799238
67	0x3e21bcf4	0.15794736
68	0xbe005489	-0.12532248
69	0x3de7079d	0.11280749
70	0x3de80d68	0.11330682
71	0xbbb2042d	-0.0054326267
72	0x3cd3da62	0.025860969
73	0xbd6ae138	-0.05734369
74	0x3b264efc	0.0025376668
75	0xbcb1cecb	-0.021705052
76	0x3d970ec5	0.07375864
77	0x3bcd0a6d	0.0062573464
78	0x3e1af2aa	0.15131631
79	0x3cb4d489	0.022074
80	0x3de25f97	0.110533886
81	0x3d912bbd	0.070884205
82	0x3cd33155	0.02578036
83	0xbd0d04f7	-0.034428563
84	0xbd1de3ef	-0.038547453
85	0x3e0ff241	0.14057256
86	0x3d85768b	0.06516751
87	0x3c8e0461	0.017336072
88	0x3d323d8d	0.04351573
89	0xbd45c561	-0.04828394
90	0x3db6f04b	0.08932551
91	0xbd2cd7de	-0.042198054
92	0x3dbe5d14	0.09295097
93	0x3c9176df	0.017756877
94	0xbd891d34	-0.06695023
95	0x3e207d89	0.15672888
96	0x3dbcf78d	0.09226904
97	0xbd66eb9a	-0.05637703
98	0x3ddc6c6e	0.10762869
99	0x3d94ed53	0.072718285
100	0xbb87da3f	-0.00414589
101	0xbdeb7e5f	-0.11498713
102	0xbe179d68	-0.1480614
103	0xbc1f12fb	-0.009709115
104	0xbd9df07b	-0.07711884
105	0x3db00721	0.0859511
106	0xbe0e06da	-0.13869801
107	0xbdded8db	-0.10881206
108	0x3d6419f3	0.05568881
109	0xbe4ca66e	-0.19985363
110	0xbde68038	-0.112549245
111	0x3d2c35ce	0.0420435
112	0xbdd01b24	-0.10161427
113	0xbdd5893f	-0.10426568
114	0xbdf83126	-0.12118749
115	0xbd822efe	-0.06356619
116	0xbd549106	-0.051896118
117	0xbc225ee6	-0.009910321
118	0xbde508f9	-0.11183352
119	0xbe269cae	-0.16270706
120	0x3d3f8d9e	0.046765916
121	0x3d525dcd	0.051358987
122	0x3ae9a85c	0.0017826664
123	0xbe51a1a8	-0.20471823
124	0xbdb472f6	-0.088109896
125	0x3dcad74b	0.09904345
126	0x3c07d815	0.008291264
127	0xbdf53e97	-0.11974829
128	0x3dad4208	0.0845986
129	0x3db39b1c	0.08769819
130	0x3e584a29	0.2112204
131	0xbceaf7f1	-0.02868268
132	0x3d3b6d9d	0.045758832
133	0x3d72e0a6	0.059296273
134	0x3e0848c6	0.13309011
135	0xbdf02187	-0.11725145
136	0x3da11e67	0.07867127
137	0xbc9e1194	-0.019295491
138	0xbdccf08e	-0.1000682
139	0x3e421210	0.18952203
140	0xbd76bca5	-0.0602385
141	0xbdde5e5f	-0.108578436
142	0xbaec8a51	-0.0018046593
143	0x3c0a678c	0.008447539
144	0x3e1e18a9	0.15439095
145	0xbd892092	-0.066956654
146	0x3e274131	0.16333462
147	0x3d78bc58	0.060726494
148	0xbe0d2707	-0.13784419
149	0x3d6adc97	0.057339277
150	0xbd9d2d7f	-0.07674693
151	0x3c7e1317	0.015507481
152	0x3e43ff64	0.19140393
153	0x3dd54994	0.104144245
154	0xbdd1f9ef	-0.10252749
155	0x3e36ee1e	0.17864272
156	0x3e2bdeb5	0.16784175
157	0x3da8cf14	0.08242622
158	0xbe9ce58f	-0.3064389
159	0x3e35f51a	0.1776928
160	0xbe29ed71	-0.16594483
161	0xbe8835c3	-0.26603517
162	0x3d9a8584	0.07544997
163	0x3e29e945	0.16592892
164	0xbe824f21	-0.25450996
165	0xbe2829f9	-0.16422261
166	0xbdc866e4	-0.0978525
167	0xbdfe1a5c	-0.124073714
168	0xbe1f770b	-0.15572755
169	0x3e09c332	0.13453367
170	0xbe49f348	-0.1972171
171	0xbc34c32a	-0.011032859
172	0x3ca2c71b	0.019870332
173	0xbe1b5e77	-0.15172754
174	0xbd0b8245	-0.03405978
175	0x3de7e8d8	0.11323708
176	0xbd49ce70	-0.04926914
177	0xbc61fa02	-0.013792517
178	0xbe28ddd9	-0.16490878
179	0xbda557b3	-0.08073368
180	0xbd8bac7f	-0.068200104
181	0x3dde8486	0.108651206
182	0xbca21941	-0.019787433
183	0xbb0cd647	-0.0021490024
184	0xbcb563a7	-0.022142245
185	0xbdf36d5f	-0.11886095
186	0x3e7e9558	0.24861658
187	0xbe5f6362	-0.21815255
188	0x3cbf06c4	0.023318656
189	0x3e2d5773	0.1692789
190	0xbe001443	-0.12507729
191	0xbe24b4bb	-0.16084568
192	0xbe020a4c	-0.1269924
193	0x3bdb0cbc	0.0066848677
194	0xbe41f08c	-0.18939418
195	0xbe1bf7cb	-0.15231244
196	0x3cc13517	0.023584886
197	0xbe30d76e	-0.1726968
198	0xbe199fdd	-0.15002389
199	0x3cc57973	0.024105763
200	0xbe0035fb	-0.12520592
201	0xbd2b0c70	-0.04175991
202	0xbd122e6c	-0.035688803
203	0xbd9cdab9	-0.076589055
204	0x3d49f57d	0.04930638
205	0x3e4206ec	0.18947953
206	0xbe4d51ec	-0.20050782
207	0xb9d15ec8	-0.00039934204
208	0xbe3679c6	-0.1781989
209	0x3dc282c7	0.094976
210	0xbd684d48	-0.056714326
211	0xbd21aef0	-0.039473474
212	0x3e07917d	0.13239093
213	0x3d2b8be0	0.041881442
214	0xbd3d3e84	-0.046202198
215	0xbce7b60f	-0.028285054
216	0x3cc59fe1	0.024124088
217	0xbdbea724	-0.09309223
218	0xbd071b19	-0.032984827
219	0xbbecb0d0	-0.007223226
220	0x3c89e2e8	0.01683183
221	0x3da8d6ff	0.08244132
222	0x3e62831b	0.22120325
223	0xbe7d3e22	-0.24730733
224	0xbdae9822	-0.08525111
225	0x3e8c5ac4	0.27413
226	0xbd13d41c	-0.036090955
227	0x3c621ef8	0.013801329
228	0x3e7dbc68	0.24778903
229	0xbd917ed7	-0.07104271
230	0x3d96d3b3	0.07364597
231	0x3d810e7b	0.0630159
232	0x3d43e34d	0.047824193
233	0xbd62fcdb	-0.055416923
234	0x3db34700	0.087537766
235	0x3ccb6e0e	0.024832752
236	0xbd4d1c18	-0.05007562
237	0x3dea8ca2	0.11452605
238	0x39b180fb	0.0003385617
239	0x3da78bed	0.081809856
240	0x3e0d002f	0.13769601
241	0xbd1423ec	-0.03616707
242	0x3d315d3e	0.043301813
243	0xbd8b9f40	-0.06817484
244	0x3ca65edd	0.020308906
245	0x3d2758b5	0.040856082
246	0xbd02ff28	-0.031981617
247	0xbd2f6a03	-0.04282571
248	0x3cf5631b	0.029954484
249	0xbdd34aa8	-0.10316974
250	0xbe5ab60e	-0.21358511
251	0x3e55cab9	0.20878114
252	0xbc60b1d7	-0.013714275
253	0x3c940403	0.01806832
254	0xbe054c07	-0.13017283
255	0x3d975d18	0.07390803

layers.layer_5.bias f4 [64]
0	0xbe74d8f9	-0.23910893
1	0xbde2edc5	-0.11080507
2	0xbebf3a9b	-0.373494
3	0x3e4d6044	0.20056254
4	0xbec20558	-0.37894702
5	0x3ed7070f	0.41997573
6	0xbed9de2c	-0.42552316
7	0xbee7adf7	-0.45249912
8	0xbe8ec147	-0.27881834
9	0x3dcbc859	0.09950323
10	0xbed32297	-0.41237327
11	0x3e2d42af	0.16919969
12	0xbe82f248	-0.2557547
13	0xbe9d8961	-0.30768874
14	0xbf159f16	-0.5844587
15	0xbf020f7a	-0.50804865
16	0x3e93bc85	0.28854766
17	0xbee75f8a	-0.45190078
18	0x3f06df1c	0.5268419
19	0xbe89235b	-0.26784787
20	0xbeb54fbe	-0.354124
21	0xbecdd1e5	-0.401992
22	0x3f020798	0.5079284
23	0x3da7cb8c	0.0819312
24	0x3c3ab282	0.011395099
25	0xbede39e5	-0.43403545
26	0xbd90dfe5	-0.070739545
27	0x3ea5ad35	0.3235871
28	0xbea21298	-0.3165481
29	0x3efe4b22	0.49666697
30	0x3e6e1954	0.2325185
31	0xbe8247a5	-0.25445285
32	0x3e5f505d	0.21808
33	0xbe860984	-0.26179135
34	0x3eb20218	0.34767222
35	0xbeca7276	-0.39540452
36	0xbd865c06	-0.06560521
37	0x3f03384f	0.51257795
38	0xbe66b47c	-0.22529787
39	0xbe9608fa	-0.29303724
40	0x3eb0255b	0.344035
41	0xbec3afbb	-0.3822001
42	0x3edce370	0.4314227
43	0x3eb889da	0.36042672
44	0xbe6991f3	-0.22809581
45	0x3cbea830	0.023273557
46	0xbed64b42	-0.41854292
47	0x3ebe0f8b	0.37121233
48	0x3e9f92b6	0.3116662
49	0x3e929444	0.28628743
50	0x3e2cdc91	0.16881014
51	0xbd94b02d	-0.07260165
52	0x3d047c4f	0.032345112
53	0x3ee06910	0.43830156
54	0x3ec04c51	0.37558225
55	0x3eb8306a	0.35974437
56	0x3dd80ba8	0.10549098
57	0xbe3a235e	-0.18177554
58	0xbe506717	-0.20351826
59	0x3e6fa362	0.2340217
60	0xbecc7349	-0.39931706
61	0xbe1484c4	-0.14503771
62	0xbeb715be	-0.35758775
63	0x3e8580d5	0.26074854
