Autonomous Differential Equations/model.pt (torch, 88955 bytes, 14 tensors)

layers.layer_0.weight f4 [64, 3]
0.60387254 0.0127372835 -0.13797033 -0.2618375 0.11849977 0.06753966 -0.29609266 0.98776275
0.22460075 -0.15075229 0.3020058 0.5934416 -0.28488165 0.37022388 0.53967816 0.62263423
0.679464 0.24119328 0.11555736 0.15674458 1.0192252 0.1775108 -0.44785693 -0.63475037
-0.33539772 -0.33730748 -0.29523152 -0.8970044 -0.11493668 -0.84331 0.14448287 0.62194663
0.11037723 -0.24008127 -0.24839678 -0.6234024 0.08309752 -1.0437274 -0.047281537 0.23420773
0.24420203 -0.10276153 0.49352887 0.7557487 0.11546123 -0.10016079 -0.03888593 0.21921268
-0.21704112 0.086299464 0.12776092 -0.47829002 -0.0154025825 -0.058194906 -0.19281526 -0.008889724
0.33470926 -0.6259809 0.008435152 -0.09605428 -0.31848547 0.7245957 -0.006502607 0.4495754
-0.56294084 -0.19962282 0.12921284 0.124448806 0.50168353 -0.56633276 0.037765026 -0.24092624
0.13103937 0.29607764 0.16809502 0.8657238 1.7634228 0.13425653 -0.29183367 0.49621877
0.67925537 -0.484161 -0.35193312 -0.5106846 -0.37388408 -0.047794767 -0.063525036 -0.34205133
-0.4116516 -0.46474853 -0.37502915 0.966878 -0.001972165 -1.2925088 -0.14552586 -0.0070630107
-0.31769732 -0.44198674 -0.5609081 -0.2805639 0.03414219 -0.38450056 0.06692801 -0.3817393
0.10816646 0.50152457 -0.22516035 -0.15946095 0.64088506 0.12779391 -0.031775065 -0.5551753
-0.7152703 0.014127215 0.77739877 -0.07195968 -0.08533713 -0.42752448 -0.4752055 -0.017897367
0.16496295 0.26496443 0.0035715087 0.3455933 0.06512957 -0.123722956 0.23092136 0.7962604
0.06775277 0.42806527 0.053658146 0.5624194 -0.81438726 -0.09903946 -0.19092879 0.09274032
1.4985366 0.026793046 0.0022503447 1.2380147 -0.0022950133 0.8348829 1.8910006 0.11176763
-0.27894264 -0.11287428 -0.62871885 0.77675366 0.13264675 0.003462745 -0.20180026 -0.35336086
-0.7347299 0.16228805 -0.16788404 -0.9636927 0.45112503 0.61958057 0.07114794 0.34358492
-0.15858543 -0.031496104 -0.057239283 -0.41248497 -0.49630132 -0.23180091 -0.9545312 0.083362535
0.17580436 -0.58944595 -0.117359184 0.053434875 -0.4788916 -0.33019316 0.29474625 0.124448396
0.64923507 0.35046422 -0.13336523 0.11662832 0.5843427 0.9121429 0.46082628 0.26563513
-0.45666972 -0.041794248 -1.278221 -1.5455447 -1.6723374 -0.34994322 0.05089713 0.4627099
00000000: 6497 1a3f 0ab0 503c 1848 0dbe 910f 86be
00000010: 02b0 f23d 3c52 8a3d 7599 97be 05de 7c3f
00000020: bdfd 653e cf5e 1abe 81a0 9a3e caeb 173f
00000030: 02dc 91be fc8d bd3e 5928 0a3f f564 1f3f
00000040: 5af1 2d3f 5ffb 763e 56a9 ec3d a781 203e
00000050: f975 823f 64c5 353e 814d e5be 007f 22bf
00000060: 40b9 abbe 91b3 acbe 9628 97be 15a2 65bf
00000070: ec63 ebbd 2ae3 57bf 51f3 133e e537 1f3f
00000080: 750d e23d ddd7 75be ba5b 7ebe 4d97 1fbf
00000090: 082f aa3d dc98 85bf 49aa 41bd 27d4 6f3e
000000a0: 1910 7a3e a374 d2bd d1af fc3e bf78 413f
000000b0: f076 ec3d 1a21 cdbd da46 1fbd 4a79 603e
000000c0: 0740 5ebe c6bd b03d c2d3 023e 6ee2 f4be
000000d0: 1d5b 7cbc c85d 6ebd 5d71 45be 34a6 11bc
000000e0: 035f ab3e 4940 20bf 9733 0a3c 1bb8 c4bd
000000f0: 8710 a3be 1b7f 393f d213 d5bb bf2e e63e
00000100: e41c 10bf ed69 4cbe 5f50 043e 04df fe3d
00000110: 556e 003f 2ffb 10bf 80af 1a3d 5eb5 76be
00000120: 2f2f 063e 7d97 973e 1a21 2c3e 13a0 5d3f
00000130: d7b7 e13f 8b7a 093e 396b 95be 6310 fe3e
00000140: aee3 2d3f f3e3 f7be 9430 b4be 3abc 02bf
00000150: bc6d bfbe 72c4 43bd 6a19 82bd 5a21 afbe
00000160: 00c4 d2be 85f3 edbe d203 c0be 5185 773f
00000170: 703f 01bb ee70 a5bf bb04 15be d470 e7bb
00000180: 39a9 a2be 164c e2be ac97 0fbf 12a6 8fbe
00000190: aed8 0b3d 42dd c4be 8d11 893d 5573 c3be
000001a0: 6186 dd3d ea63 003f 6f90 66be bb49 23be
000001b0: 0b11 243f 68dc 023e 9226 02bd f81f 0ebf
000001c0: f41b 37bf d675 673c 9b03 473f 995f 93bd
000001d0: 3cc5 aebd 7de4 dabe 234e f3be 809d 92bc
000001e0: 0cec 283e 6ba9 873e f90f 6a3b 9bf1 b03e
000001f0: a762 853d 7662 fdbd a676 6c3e b9d7 4b3f
00000200: f7c1 8a3d 5f2b db3e a5c8 5b3d b8fa 0f3f
00000210: af7b 50bf 33d5 cabd d682 43be a3ee bd3d
00000220: 0cd0 bf3f 177d db3c 857a 133b 4477 9e3f
00000230: ef67 16bb e3ba 553f 4f0c f23f 6de6 e43d
00000240: 92d1 8ebe a12a e7bd b8f3 20bf 54d9 463f
00000250: 8dd4 073e 39ef 623b baa4 4ebe b7eb b4be
00000260: 4217 3cbf d72e 263e cbe9 2bbe 91b4 76bf
00000270: dcf9 e63e d59c 1e3f 03b6 913d 5dea af3e
00000280: 3864 22be 0f02 01bd bd73 6abd 3b31 d3be
00000290: 351b febe 385d 6dbe 285c 74bf fab9 aa3d
000002a0: 0f06 343e eee5 16bf 035a f0bd 87de 5a3d
000002b0: 4831 f5be 140f a9be fbe8 963e cdde fe3d
000002c0: 4534 263f 0c70 b33e e590 08be d4da ee3d
000002d0: 7c97 153f 3282 693f 6cf1 eb3e 5401 883e
000002e0: 9dd0 e9be 7230 2bbd bf9c a3bf 69d4 c5bf
000002f0: 270f d6bf c22b b3be 8279 503d 50e8 ec3e

layers.layer_0.bias f4 [64]
0.0017742526 -0.111272186 0.02496599 0.41570765 0.51233035 -0.2592416 0.15692869 0.45297757
0.4831112 -0.57282406 0.6287963 -0.539796 -0.17185342 0.3973054 0.18426974 -0.43837804
-0.53798026 0.72622144 0.32161868 0.67831415 0.42546636 -0.41975737 -0.0078068976 -0.9314409
-0.52545816 -0.5209217 -0.1320476 0.09799485 -0.6091049 -0.07869627 0.5633974 0.1173923
-0.27253962 -0.51404184 -0.4792009 -0.12673414 -0.30550024 0.11018391 0.55493903 -0.05934384
0.3733483 -0.035311487 0.6165557 0.44865286 0.73278475 0.31585568 0.49578857 -0.48851478
-0.18162936 -0.51366717 -0.13251662 -0.2206193 0.034414046 0.61151814 -0.3319703 -0.412201
0.10147464 0.4511359 0.3087755 0.53852797 -0.58844566 -0.29746494 -0.8450371 0.3330085
00000000: 0a8e e83a ace2 e3bd 7a85 cc3c a2d7 d43e
00000010: 1528 033f 51bb 84be eab1 203e adec e73e
00000020: 5a5a f73e 99a4 12bf cbf8 203f 1230 0abf
00000030: 58fa 2fbe 9d6b cb3e 35b1 3c3e 1673 e0be
00000040: 13b9 09bf a6e9 393f 34ab a43e ffa5 2d3f
00000050: bad6 d93e 70ea d6be 01d1 ffbb e972 6ebf
00000060: 6d84 06bf 205b 05bf 7c37 07be 86b1 c83d
00000070: 4cee 1bbf 832b a1bd d03a 103f 606b f03d
00000080: 508a 8bbe 3f98 03bf d259 f5be 98c6 01be
00000090: 876a 9cbe 1aa8 e13d 7c10 0e3f 8712 73bd
000000a0: 8227 bf3e c7a2 10bd 98d6 1d3f d4b5 e53e
000000b0: c897 3b3f d6b7 a13e 00d8 fd3e 9c1e fabe
000000c0: 0cfd 39be b17f 03bf 70b2 07be 07ea 61be
000000d0: bef5 0c3d 748c 1c3f 03f8 a9be 020c d3be
000000e0: f0d1 cf3d 49fb e63e d317 9e3e f8dc 093f
000000f0: 60a4 16bf 534d 98be 5a54 58bf 1780 aa3e

layers.layer_1.weight f4 [64, 64]
-0.07960521 -0.040091597 0.044220768 -0.13081136 -0.016578253 0.1723626 0.07468469 -0.13651837
0.10093512 0.09377233 0.02138236 0.02947818 -0.123206005 0.12993269 0.047288388 -0.16609235
-0.15736438 0.13776988 -0.06888119 -0.0029137237 0.021581775 0.06898238 -0.110845156 0.1661897
0.14048994 0.13703151 0.06734717 0.056468006 0.0037890808 -0.019489516 0.092761844 -0.11522311
0.20005323 0.04119776 0.0016059646 -0.010127263 -0.093681015 0.07494586 -0.05105347 -0.14745416
-0.068309896 0.037996504 -0.11440776 -0.16599865 -0.048452005 -0.02248515 0.05885829 0.21082647
0.1760771 0.015416416 0.058205854 -0.066689074 0.09470956 0.068054736 0.10042907 -0.13188389
0.15997578 -0.18394056 -0.06535049 -0.08652069 -0.055561654 0.052979533 0.043199666 0.01927131
0.21562114 0.06713381 0.08917018 -0.028099138 -0.018030792 0.053830966 0.017822646 0.11696694
0.061041817 0.0063150227 0.10641311 -0.021576125 0.118191324 -0.08861889 -0.039023977 0.065808855
-0.24632889 -0.025286146 -0.076736204 0.046989456 -0.016554866 0.019822974 0.12783076 -0.06120689
-0.011050361 0.11800437 0.025036432 -0.120171145 -0.0069640907 -0.03727704 0.13001299 0.0872113
0.015850361 -0.19147803 -0.0026719414 0.060187712 0.08999176 -0.17473905 0.15498686 -0.044446506
0.037614632 -0.057889264 0.19166133 0.12784185 0.030672628 0.034976434 0.008986822 0.07643167
0.08677805 0.10667299 0.08828274 0.12719241 0.17005594 0.08912932 -0.015898535 -0.07625495
-0.06549232 -0.07862806 0.026352957 -0.034862213 -0.03450064 0.07874827 -0.12939633 0.07631545
0.27428493 0.15552418 0.40772876 -0.12567659 -0.04410768 0.19996959 -0.14383936 -0.14883547
-0.059154652 -0.19078635 -0.19739382 0.16157286 -0.07681971 -0.20851217 -0.19914682 0.3513843
0.38060835 -0.27770868 -0.09176144 -0.10198835 0.08759775 -0.0635899 -0.063211724 -0.13951416
0.16936225 0.16838245 0.0241157 0.054865457 -0.12198239 0.21155143 -0.37242135 0.075301215
0.048692536 0.18853338 0.0025921625 -0.14132486 0.009281827 0.098148786 0.4054274 -0.14995956
-0.07212424 0.2908083 0.34230477 -0.21463871 -0.1020947 0.38099465 0.17700738 0.118802115
0.26541442 0.44344538 0.28586385 0.18165332 0.1655272 -0.024663068 0.055846166 -0.19063239
0.008893966 -0.2974964 -0.1449406 0.059675798 -0.24498595 0.0031113098 -0.012740851 0.020786848
0.33656898 -0.3107525 0.22503099 -0.23094822 -0.101969056 -0.044537347 -0.38137114 0.01452338
0.1539701 -0.066792876 0.13821839 0.37618348 0.03545919 -0.21827509 -0.03185407 0.18931516
-0.10682773 -0.014168466 -0.3631386 0.14512995 -0.28010336 0.2120025 -0.32956794 -0.16750102
0.24959518 -0.2516006 -0.091409445 0.28001204 -0.012845043 0.16068277 0.017490149 0.35354313
0.24258073 0.18483756 0.12462678 0.2449999 -0.23397629 0.16345955 0.1961619 0.28906658
-0.19542816 -0.18106024 0.24204986 -0.18492068 0.310552 -0.015804058 0.038706727 -0.09617854
0.32254305 0.25057814 0.3729996 -0.085013755 -0.0724022 0.2688157 0.32777518 0.11155525
0.13301723 0.06407632 -0.3732687 0.21762274 -0.2014513 0.11949288 -0.23134743 -0.28879687
00000000: 0e08 a3bd 1637 24bd d620 353d 6af3 05be
00000010: 1ecf 87bc d27f 303e 49f4 983d 79cb 0bbe
00000020: 12b7 ce3d b50b c03d 0f2a af3c 397c f13c
00000030: 6e53 fcbd 130d 053e 78b1 413d 1d14 2abe
00000040: 2124 21be 8c13 0d3e 9511 8dbd 2cf4 3ebb
00000050: 43cc b03c a246 8d3d c902 e3bd a22d 2a3e
00000060: 98dc 0f3e fd51 0c3e 50ed 893d ff4a 673d
00000070: 3a52 783b 7aa8 9fbc ecf9 bd3d 18fa ebbd
00000080: c1da 4c3e fbbe 283d 3b7f d23a d2ec 25bc
00000090: d5db bfbd 377d 993d 711d 51bd 39fe 16be
000000a0: 0fe6 8bbd 39a2 1b3d 9e4e eabd 8dfb 29be
000000b0: 9c75 46bd c732 b8bc 6415 713d e5e2 573e
000000c0: 8e4d 343e 2395 7c3c 4369 6e3d 4894 88bd
000000d0: 16f7 c13d 4860 8b3d c2ad cd3d 920c 07be
000000e0: b1d0 233e ea5a 3cbe 7ad6 85bd c231 b1bd
000000f0: 9e94 63bd 1101 593d 22f2 303d dede 9d3c
00000100: cacb 5c3e 737d 893d db9e b63d 2a30 e6bc
00000110: 50b5 93bc dc7d 5c3d cc00 923c 5d8c ef3d
00000120: fc06 7a3d 40ee ce3b 1eef d93d 6ac0 b0bc
00000130: 4b0e f23d d27d b5bd 9bd7 1fbd cbc6 863d
00000140: a43d 7cbe e424 cfbc df27 9dbd 0478 403d
00000150: 129e 87bc ca63 a23c 11e6 023e 13b4 7abd
00000160: 930c 35bc 46ac f13d 3419 cd3c 4a1c f6bd
00000170: 0733 e4bb cfaf 18bd 2022 053e d79b b23d
00000180: 9ed8 813c d112 44be bd1b 2fbb 6487 763d
00000190: 9a4d b83d cbee 32be e0b4 1e3e 8a0d 36bd
000001a0: cd11 1a3d 4b1d 6dbd de42 443e f9e8 023e
000001b0: 2a45 fb3c 7343 0f3d 773d 133c 3588 9c3d
000001c0: b1b8 b13d 5e77 da3d 95cd b43d ba3e 023e
000001d0: 2523 2e3e 6f89 b63d a53d 82bc 8e2b 9cbd
000001e0: d620 86bd c007 a1bd 28e2 d73c aecb 0ebd
000001f0: 8b50 0dbd c646 a13d 7980 04be 464b 9c3d
00000200: 136f 8c3e bb41 1f3e d3c1 d03e 5db1 00be
00000210: 41aa 34bd d4c4 4c3e a04a 13be 5368 18be
00000220: 264c 72bd 7f5d 43be 9b21 4abe 5b73 253e
00000230: a753 9dbd 3784 55be 25ed 4bbe a5e8 b33e
00000240: 19df c23e d52f 8ebe 6ced bbbd 45df d0bd
00000250: 7366 b33d 6c3b 82bd 2675 81bd cddc 0ebe
00000260: 4c6d 2d3e 736c 2c3e 4a8e c53c 9aba 603d
00000270: e7d1 f9bd f0a0 583e 03ae bebe 8637 9a3d
00000280: d371 473d e50e 413e 45e1 293b 77b7 10be
00000290: ce12 183c 3b02 c93d 2e94 cf3e 008f 19be
000002a0: e0b5 93bd d3e4 943e 9242 af3e 40ca 5bbe
000002b0: 0717 d1bd bb11 c33e 6c41 353e 864e f33d
000002c0: 66e4 873e 460b e33e bf5c 923e 5403 3a3e
000002d0: f67f 293e 340a cabc f3be 643d 2335 43be
000002e0: ffb7 113c 7351 98be 4f6b 14be 9c6e 743d
000002f0: 99dd 7abe 1ee7 4b3b 01bf 50bc 2e49 aa3c
00000300: c552 ac3e f41a 9fbe 866e 663e b17d 6cbe
00000310: 27d5 d0bd cb6c 36bd 1443 c3be 79f3 6d3c
00000320: 57aa 1d3e b4ca 88bd 1f89 0d3e 1f9b c03e
00000330: a83d 113d 8183 5fbe 6a79 02bd d5db 413e
00000340: 7fc8 dabd db22 68bc 4ded b9be f29c 143e
00000350: b569 8fbe 2f17 593e 21bd a8be 6385 2bbe
00000360: e195 7f3e cbd1 80be e034 bbbd bd5d 8f3e
00000370: 0474 52bc 068a 243e 8047 8f3c 9b03 b53e
00000380: 1567 783e 0f46 3d3e 533c ff3d 41e1 7a3e
00000390: 7b97 6fbe f161 273e aade 483e 8900 943e
000003a0: 521e 48be db67 39be ebdb 773e d95b 3dbe
000003b0: ac00 9f3e 8377 81bc f28a 1e3d 41f9 c4bd
000003c0: 5d24 a53e c74b 803e cef9 be3e b11b aebd
000003d0: 9b47 94bd 36a2 893e 26d2 a73e 1477 e43d
000003e0: ab35 083e 723a 833d 131d bfbe 7fd8 5e3e
000003f0: 4049 4ebe afb8 f43d 57e6 6cbe 2fdd 93be

layers.layer_1.bias f4 [64]
-0.16917433 0.025192307 -0.075801395 -0.31227022 -0.077629596 0.09054742 -0.010421513 0.15948234
-0.10163647 -0.070813134 0.030245503 0.16632816 -0.3349378 -0.14492364 0.015525737 0.024188126
0.103207394 0.08754557 -0.11301575 0.042348564 0.094985165 -0.026967686 -0.1687954 -0.11224908
0.09916956 -0.046237964 0.10923453 0.2711579 -0.061536394 0.03398446 0.21910699 0.13318262
-0.22746144 0.08044472 0.02286255 -0.30617294 -0.109342754 0.0018437328 -0.02506705 0.2123233
0.06882399 0.10281798 0.009455458 -0.24357714 0.085638806 -0.050601814 -0.08577928 -0.011160707
0.06194122 0.15873094 0.019311879 -0.035789147 -0.090203054 -0.08519222 -0.003861496 0.08622086
-0.016769404 0.16517098 0.059543606 -0.11323721 -0.27667108 -0.024984345 0.11185745 0.1499813
00000000: 093c 2dbe 1960 ce3c c33d 9bbd e2e1 9fbe
00000010: 44fc 9ebd ed70 b93d febe 2abc 574f 233e
00000020: c826 d0bd 7a06 91bd 6bc5 f73c ee51 2a3e
00000030: f87c abbe dd66 14be a95f 7e3c 2d26 c63c
00000040: 665e d33d 184b b33d cd74 e7bd b075 2d3d
00000050: 9587 c23d 56eb dcbc b4d8 2cbe d8e2 e5bd
00000060: 6919 cb3d 0564 3dbd 5ab6 df3d 35d5 8a3e
00000070: 960d 7cbd 4a33 0b3d 955d 603e 0661 083e
00000080: a7eb 68be 34c0 a43d 3e4a bb3c b3c2 9cbe
00000090: 18ef dfbd 68a9 f13a 6a59 cdbc 476b 593e
000000a0: 98f3 8c3d 3c92 d23d 11eb 1a3c 496c 79be
000000b0: 6663 af3d d943 4fbd 0cad afbd 66db 36bc
000000c0: 14b6 7d3d 5d8a 223e f233 9e3c a497 12bd
000000d0: 61bc b8bd 4279 aebd 2711 7dbb 9094 b03d
000000e0: fd5f 89bc 9522 293e ffe3 733d e9e8 e7bd
000000f0: d5a7 8dbe f8ab ccbc 8515 e53d b394 193e

layers.layer_2.weight f4 [64, 64]
0.101658426 -0.034472104 0.072730236 0.15727077 -0.022143664 -0.10815773 0.059748016 0.16062105
-0.083208725 0.1137262 -0.06651355 -0.030580984 -0.16453512 -0.11757695 0.21253924 -0.047275726
0.00077557284 0.054982297 -0.07656593 -0.084348306 0.04671623 -0.07196871 0.06696333 0.07203163
-0.09186002 0.0132433735 -0.061255988 -0.044491656 0.027043056 -0.03782552 -0.0417281 -0.0842811
-0.010947129 0.16918178 -0.106331915 0.0021062028 0.0068456703 0.09278737 0.0821616 -0.003494634
0.12455354 -0.041702036 0.0055637425 0.11850671 -0.19288886 -0.11379098 0.048774216 0.045437895
0.06280335 -0.018523691 -0.14434281 0.124442145 -0.08957398 -0.02843649 0.02554595 -0.07475586
-0.076996505 0.030840341 -0.07355013 -0.020942807 -0.10047207 -0.00037675296 0.0022284472 0.008317534
-0.17690709 0.15518947 0.067933604 -0.20528612 -0.048125334 -0.013234616 -0.108977735 0.07770342
-0.06380998 -0.08645341 -0.08864665 0.0808012 -0.20227319 0.10218353 -0.07417204 -0.12697509
0.14038128 0.038112573 -0.07266499 0.06335058 0.09264435 -0.15972267 -0.09465131 -0.073644586
0.040468898 0.046056814 -0.081801824 0.12060307 0.053514224 -0.06814197 -0.008359566 0.031227494
0.07335298 -0.005830333 -0.033441972 -0.13371289 0.063840814 -0.022359814 -0.026726054 0.14030236
0.04666464 0.1119179 0.004909236 -0.19664235 0.069385625 0.069167405 0.014482834 0.19049616
0.05232908 0.03949166 0.07170279 -0.14549302 -0.040324554 0.023323523 0.020369833 -0.1708614
-0.101459675 0.062493812 -0.071028404 -0.15943488 -0.21112761 -0.025828026 -0.13152213 -0.08066692
-0.03498706 -0.07870372 -0.057344813 -0.12693918 0.07046885 -0.0386902 -0.21029945 0.032117687
-0.09560364 -0.009001792 -0.08847973 0.24947925 -0.07284952 -0.054745488 -0.24782574 0.06319599
0.14850463 -0.044264063 0.094127655 0.020401195 0.025798721 -0.1903893 -0.07550382 0.06322028
0.10323559 -0.021075053 -0.048407037 0.088479 -0.1553103 -0.01011165 0.050029796 0.06270172
0.1684907 -0.04194594 0.03329697 -0.18102515 0.16463205 -0.0064436025 0.03019207 0.051822763
-0.1168793 -0.0031980851 -0.009008305 -0.14281793 0.20124832 -0.04058256 0.18055038 0.15569688
-0.046810716 0.09104086 0.07225317 -0.13221774 0.061790034 -0.02376529 0.14508413 -0.17003085
-0.043181658 -0.045876577 0.0018838545 -0.014705164 -0.16092856 -0.049852427 -0.08233441 0.033039182
0.040273353 -0.057986215 -0.11469132 -0.013625889 0.08070492 0.124865144 -0.0222833 0.13913937
-0.038460854 -0.031809453 -0.10029 0.067892775 -0.22839513 -0.13751586 -0.051943947 -0.013448171
0.078442916 0.087446295 -0.28059414 -0.099411815 0.19203885 0.01660664 -0.07119881 -0.014843036
-0.05797183 -0.12807988 0.16318884 -0.1573056 -0.33438078 -0.053040765 0.05208538 0.002767709
-0.04473777 -0.05417676 -0.12989883 -0.14800808 -0.03661219 -0.07817809 -0.049319647 0.062058885
0.11036224 -0.03316365 -0.06443268 -0.011608569 0.050505195 0.07759176 -0.097752504 0.0783219
0.040538438 -0.047678337 -0.087483354 0.06518796 0.062670484 -0.16723475 0.09589619 0.09019354
0.09425269 0.21903372 -0.18825148 -0.1937353 0.007568614 -0.07537351 0.13212195 0.08988531
00000000: 4b32 d03d 9f32 0dbd 97f3 943d 970b 213e
00000010: a166 b5bc cd81 ddbd 56ba 743d d879 243e
00000020: 5669 aabd 48e9 e83d 4238 88bd f984 fabc
00000030: e57b 28be 2fcc f0bd e3a3 593e 31a4 41bd
00000040: d04f 4b3a 1e35 613d 99ce 9cbd cebe acbd
00000050: 8559 3f3d 5564 93bd 1224 893d 5285 933d
00000060: 1b21 bcbd bcfa 583c 8fe7 7abd e23c 36bd
00000070: 6689 dd3c efee 1abd 16eb 2abd 929b acbd
00000080: 965b 33bc fd3d 2d3e 8cc4 d9bd 3808 0a3b
00000090: a551 e03b 4e07 be3d 5744 a83d 3b06 65bb
000000a0: ed15 ff3d c1cf 2abd 0e50 b63b a5b3 f23d
000000b0: a884 45be 3f0b e9bd 79c7 473d 161d 3a3d
000000c0: 0b9f 803d ffbe 97bc 9ace 13be 86db fe3d
000000d0: 9072 b7bd a4f3 e8bc bd45 d13c 9a19 99bd
000000e0: 58b0 9dbd e2a4 fc3c 73a1 96bd 4090 abbc
000000f0: 4dc4 cdbd ed86 c5b9 240b 123b 4446 083c
00000100: 2227 35be fde9 1e3e c620 8b3d 8636 52be
00000110: 121f 45bd 01d6 58bc b82f dfbd f822 9f3d
00000120: cfae 82bd 7c0e b1bd 608c b5bd 197b a53d
00000130: b420 4fbe 9945 d13d 83e7 97bd c205 02be
00000140: 1cc0 0f3e ee1b 1c3d 62d1 94bd f3bd 813d
00000150: 52bc bd3d 578e 23be 8cd8 c1bd f9d2 96bd
00000160: b7c2 253d 12a6 3c3d b787 a7bd befe f63d
00000170: bb31 5b3d 048e 8bbd 90f6 08bc cdd0 ff3c
00000180: 163a 963d 610c bfbb 73fa 08bd 08ec 08be
00000190: f9be 823d ee2b b7bc 99f0 dabc 6cab 0f3e
000001a0: 6c23 3f3d 3635 e53d a8dd a03b 9d5c 49be
000001b0: 0d1a 8e3d a4a7 8d3d 6949 6d3c 6d11 433e
000001c0: 0457 563d 02c2 213d ead8 923d 1ffc 14be
000001d0: 5c2b 25bd f910 bf3c a3de a63c 4af6 2ebe
000001e0: 17ca cfbd 83f9 7f3d 5777 91bd e642 23be
000001f0: d631 58be 4c95 d3bc bdad 06be b334 a5bd
00000200: 974e 0fbd 6a2f a1bd 65e2 6abd 58fc 01be
00000210: f951 903d 9d79 1ebd bd58 57be d68d 033d
00000220: d7cb c3bd 417c 13bc dc34 b5bd 7d77 7f3e
00000230: 2132 95bd ce3c 60bd 08c6 7dbe e66c 813d
00000240: 9911 183e 3c4e 35bd 00c6 c03d 6820 a73c
00000250: d757 d33c 6af5 42be bfa1 9abd a279 813d
00000260: 2e6d d33d 97a5 acbc 7546 46bd 7a34 b53d
00000270: aa09 1fbe 56ab 25bc 0bec 4c3d c269 803d
00000280: d388 2c3e 82cf 2bbd 6762 083d a85e 39be
00000290: 4e95 283e db24 d3bb 5c55 f73c 1b44 543d
000002a0: 6a5e efbd f796 51bb 9297 13bc dd3e 12be
000002b0: 0a14 4e3e e639 26bd 33e2 383e 016f 1f3e
000002c0: 98bc 3fbd a173 ba3d 78f9 933d 1664 07be
000002d0: 8c17 7d3d 6daf c2bc ef90 143e 911c 2ebe
000002e0: 40df 30bd 14e9 3bbd abeb f63a eeed 70bc
000002f0: 75ca 24be 0f32 4cbd f19e a8bd 1854 073d
00000300: acf5 243d f482 6dbd 48e3 eabd 1f3f 5fbc
00000310: 9f48 a53d 4cb9 ff3d 788b b6bc 8d7a 0e3e
00000320: 2189 1dbd a14a 02bd d864 cdbd 5e0b 8b3d
00000330: 6ae0 69be f5d0 0cbe 2dc3 54bd b855 5cbc
00000340: aea6 a03d 0b17 b33d 09aa 8fbe 6c98 cbbd
00000350: d5a5 443e a60a 883c afd0 91bd 3530 73bc
00000360: df73 6dbd 5f27 03be fa1a 273e b814 21be
00000370: f533 abbe 4641 59bd 7b57 553d 7462 353b
00000380: f43e 37bd 73e8 5dbd 3304 05be 6e8f 17be
00000390: aaf6 15bd d61b a0bd 6603 4abd 7531 7e3d
000003a0: 9905 e23d 9cd6 07bd 48f5 83bd de31 3ebc
000003b0: 89de 4e3d 6ee8 9e3d 7732 c8bd 3b67 a03d
000003c0: a20b 263d 5c4a 43bd 792a b3bd 4481 853d
000003d0: 6259 803d 963f 2bbe 3965 c43d 64b7 b83d
000003e0: 8e07 c13d 604a 603e ffc4 40be 8c62 46be
000003f0: 2302 f83b 6d5d 9abd fa4a 073e ca15 b83d

layers.layer_2.bias f4 [64]
-0.057309 0.072216265 0.039991606 0.17143114 -0.041941278 -0.031650037 0.18178476 -0.01774326
-0.00084050087 -0.07987888 0.019904014 -0.0844211 0.0040962375 0.09464467 0.07482955 0.076530226
-0.027617214 0.16041952 -0.003475248 -0.074364275 -0.026178824 -0.15818894 0.029994538 -0.15971814
-0.13333353 0.11634274 -0.32275414 0.13741723 0.051776983 0.32893893 -0.116148055 -0.08905067
0.13759394 0.06336906 0.09332852 0.031989336 0.3352527 0.08662324 -0.14734043 0.025745334
0.017189639 0.03832855 0.059078038 0.1306644 -0.06962918 0.05100383 0.0012730621 0.020240352
0.06356021 -0.069236085 -0.5300353 0.15719734 -0.058946814 0.012528232 -0.056962613 0.16117492
-0.04967985 -0.13604975 0.09184742 -0.03271834 -0.12597714 0.033524092 0.045614414 0.034045823
00000000: d8bc 6abd 1fe6 933d 3dce 233d a58b 2f3e
00000010: 9eca 2bbd 78a3 01bd c925 3a3e 505a 91bc
00000020: 0f55 5cba 8a97 a3bd be0d a33c f8e4 acbd
00000030: bb39 863b 11d5 c13d 3c40 993d e1bb 9c3d
00000040: 7f3d e2bc 0445 243e fdc0 63bb 4c4c 98bd
00000050: f974 d6bc 48fc 21be 1bb7 f53c 278d 23be
00000060: 9688 08be 1a45 ee3d 0840 a5be 1ab7 0c3e
00000070: 1a14 543d af6a a83e 08df edbd 3360 b6bd
00000080: 6de5 0c3e a3c7 813d 0623 bf3d 4007 033d
00000090: 3ea6 ab3e 8667 b13d 69e0 16be e1e7 d23c
000000a0: 49d1 8c3c 66fe 1c3d d0fb 713d e3cc 053e
000000b0: be99 8ebd 64e9 503d e0dc a63a 18cf a53c
000000c0: db2b 823d a6cb 8dbd 65b0 07bf 57f8 203e
000000d0: 3772 71bd 3743 4d3c a151 69bd 0a0b 253e
000000e0: 197d 4bbd a050 0bbe 801a bc3d ab03 06bd
000000f0: 2700 01be 8f50 093d 2ed6 3a3d a273 0b3d

layers.layer_3.weight f4 [64, 64]
0.041720573 -0.09477047 -0.21191764 -0.1651579 -0.19697762 -0.051915344 0.09729215 -0.17071162
-0.26729813 -0.09442542 0.055207882 0.27225554 -0.10673435 0.058427926 0.004285486 0.049545947
0.25163564 -0.1785492 0.00013995044 -0.088430814 0.106807925 0.21928823 -0.10302695 0.07385358
-0.08224803 -0.056216232 0.1392616 -0.042189285 -0.14892046 -0.077287935 -0.026512066 0.25759488
-0.25486276 0.10314001 0.09924121 0.11371677 0.035496004 -0.01959811 0.0136852795 0.19163683
0.118708044 0.033201937 0.15744941 0.099647835 -0.072877586 0.10249552 0.06426246 0.09597594
0.18810977 0.018697292 -0.020373715 -0.22405446 0.10499305 -0.016952263 0.031409275 0.18198803
0.13880518 -0.11051895 0.0076421034 0.11903835 -0.0069385385 0.033740003 0.42186388 0.029984612
0.15565844 -0.0007630447 0.09010512 -0.10197666 -0.14648585 0.39666337 0.050546568 0.20978679
-0.0950435 -0.010728098 0.0059096054 -0.16856658 0.14426072 0.031791497 -0.037893936 0.20433709
0.052465055 -0.07239635 -0.048471015 0.046141565 -0.069091044 0.089766756 0.029096298 0.040883448
-0.15673207 -0.10742252 -0.10317791 -0.057643026 0.022318553 0.0680791 -0.06602538 -0.06304831
-0.075310506 -0.030519443 -0.29734573 -0.08569575 0.12618668 0.08343807 -0.10203612 0.10798404
-0.1063959 -0.032168325 0.03024199 -0.13027045 -0.053348407 0.08424775 0.08258672 -0.1892341
-0.076760575 -0.05356725 -0.07835474 -0.18955424 -0.07885582 -0.17795937 -0.07914607 0.09430062
0.049441222 -0.08226645 -0.11684042 -0.144988 0.21780759 -0.025231514 -0.14234245 -0.0007612372
-0.025198882 -0.14283592 -0.15346335 -0.046016872 -0.00871722 -0.1175746 -0.10139455 -0.095968425
-0.07431729 -0.122229315 -0.043656338 0.07026766 0.14164372 -0.1403649 0.06647867 -0.072008684
0.049899276 -0.08146822 0.23649451 0.037058644 -0.14053814 -0.054190498 -0.059436027 0.16124943
0.029900618 -0.04529906 0.45115307 -0.05869023 0.1318692 -0.21292244 0.070978455 0.22379218
-0.01870256 0.124106355 0.11710735 -0.050595175 -0.073564686 -0.19484049 0.066922165 0.054143623
0.32188857 -0.08781352 -0.06610138 0.010663555 -0.09061804 -0.15437405 0.21654233 -0.087190695
0.100136794 0.20459682 0.33914512 0.083380796 -0.05686142 -0.009072867 0.13392235 -0.10731253
0.054274637 -0.027624754 -0.009213827 0.12293167 0.046026997 0.09507651 0.21769433 0.18197967
-0.049863365 0.0911481 -0.07778023 -0.008532728 0.018223932 0.155523 -0.1201961 -0.037492316
-0.019869432 0.14578114 -0.085512795 0.040720843 0.05806642 -0.11670525 0.058759145 -0.03666182
0.06431029 -0.008700911 -0.060871974 0.10151587 -0.08313234 -0.077939734 -0.116225295 -0.006546597
0.03659413 -0.014874964 0.03863594 0.10356229 0.009444158 -0.056292586 -0.009626224 0.022175303
0.09107845 -0.047541592 0.04550115 -0.09292751 -0.13857451 0.16993923 -0.0063309236 0.08275223
0.07192818 0.109045185 -0.0072720023 -0.11544671 -0.03459599 0.08156747 0.13531817 -0.07635866
0.14381965 0.1435301 -0.044712078 -0.014501704 0.06831176 -0.10161672 0.016434558 -0.015786912
0.077314675 0.02454931 0.046683636 -0.056454163 -0.0005395447 -0.06071725 0.08781828 0.0451621
00000000: 31e3 2a3d 0517 c2bd f000 59be 271f 29be
00000010: 80b4 49be 2fa5 54bd 1b41 c73d 07cf 2ebe
00000020: 4ddb 88be 1d62 c1bd a921 623d 1465 8b3e
00000030: 8a97 dabd 1f52 6f3d 436d 8c3b b1f0 4a3d
00000040: 63d6 803e 9ad5 36be a9bf 1239 371b b5bd
00000050: 1dbe da3d 188d 603e cbff d2bd 8c40 973d
00000060: a871 a8bd fe42 66bd 989a 0e3e acce 2cbd
00000070: 9b7e 18be 2349 9ebd d52f d9bc 7ae3 833e
00000080: 5f7d 82be 123b d33d fa3e cb3d 57e4 e83d
00000090: 4264 113d 378c a0bc 3938 603c 723c 443e
000000a0: 341d f33d c1fe 073d 6b3a 213e 2a14 cc3d
000000b0: d840 95bd 2ce9 d13d 099c 833d 098f c43d
000000c0: d99f 403e 102b 993c c7e6 a6bc 886e 65be
000000d0: 9906 d73d 79df 8abc 03a7 003d 125b 3a3e
000000e0: f222 0e3e c257 e2bd 9c6a fa3b 61ca f33d
000000f0: ae5c e3bb f532 0a3d 8bfe d73e 4aa2 f53c
00000100: ed64 1f3e 1007 48ba 0889 b83d 24d9 d0bd
00000110: 6300 16be 7617 cb3e eb09 4f3d 59d2 563e
00000120: 2ba6 c2bd e8c4 2fbc 5da5 c13b b89c 2cbe
00000130: 15b9 133e cd37 023d ac36 1bbd be3d 513e
00000140: 99e5 563d 8a44 94bd 8b89 46bd f0fe 3c3d
00000150: 9b7f 8dbd a2d7 b73d 5c5b ee3c 6775 273d
00000160: 5f7e 20be 5700 dcbd f14e d3bd 181b 6cbd
00000170: 66d5 b63c 0e6d 8b3d 5038 87bd 791f 81bd
00000180: 653c 9abd e903 fabc b33d 98be 4181 afbd
00000190: 1537 013e 94e1 aa3d 50f8 d0bd bd26 dd3d
000001a0: 18e6 d9bd efc2 03bd 0dbe f73c 9e65 05be
000001b0: dc83 5abd 168a ac3d 3a23 a93d 95c6 41be
000001c0: a634 9dbd 5569 5bbd 7378 a0bd 821a 42be
000001d0: 297f a1bd fb3a 36be 5617 a2bd af20 c13d
000001e0: e182 4a3d 507b a8bd 084a efbd bc77 14be
000001f0: f408 5f3e 52b2 cebc 38c2 11be c48d 47ba
00000200: e36d cebc 9443 12be 7f25 1dbe 307c 3cbd
00000210: acd2 0ebc f4ca f0bd f2a7 cfbd 188b c4bd
00000220: aa33 98bd 5d53 fabd fdd0 32bd 7ee8 8f3d
00000230: 0d0b 113e d1bb 0fbe f825 883d 4a79 93bd
00000240: 2f63 4c3d cfd8 a6bd 9e2b 723e ceca 173d
00000250: 3be9 0fbe dbf6 5dbd 3173 73bd 921e 253e
00000260: 24f2 f43c 828b 39bd 89fd e63e 2b65 70bd
00000270: b808 073e 5708 5abe 275d 913d c729 653e
00000280: 1c36 99bc 792b fe3d fad5 ef3d e33c 4fbd
00000290: 15a9 96bd 4484 47be 7d0e 893d b4c5 5d3d
000002a0: 94ce a43e 93d7 b3bd 2960 87bd 31b6 2e3c
000002b0: f395 b9bd 3b14 1ebe 46bd 5d3e 0991 b2bd
000002c0: 8514 cd3d d481 513e 6ea4 ad3e 8dc3 aa3d
000002d0: 85e7 68bd 5da6 14bc f122 093e acc6 dbbd
000002e0: 154f 5e3d 4f4d e2bc 97f5 16bc 99c3 fb3d
000002f0: ce86 3c3d 79b7 c23d 43eb 5e3e e158 3a3e
00000300: 873d 4cbd dbab ba3d 3e4b 9fbd dbcc 0bbc
00000310: 5b4a 953c 6c41 1f3e 5f29 f6bd 8b91 19bd
00000320: 38c5 a2bc a747 153e 5521 afbd e6ca 263d
00000330: 0ed7 6d3d 2a03 efbd 6ead 703d b42a 16bd
00000340: 1db5 833d 448e 0ebc e454 79bd 8de7 cf3d
00000350: 4a41 aabd de9e 9fbd 8707 eebd d684 d6bb
00000360: bae3 153d 1fb6 73bc b840 1e3d 7718 d43d
00000370: abbb 1a3c 0e93 66bd 4fb7 1dbc fba8 b53c
00000380: 5787 ba3d f9ba 42bd 6a5f 3a3d c750 bebd
00000390: 7ae6 0dbe 8d04 2e3e a373 cfbb 007a a93d
000003a0: 154f 933d 1553 df3d fa49 eebb 536f ecbd
000003b0: 86b4 0dbd d90c a73d d990 0a3e ee61 9cbd
000003c0: 7545 133e 8ef9 123e 0324 37bd 8e98 6dbc
000003d0: 09e7 8b3d 6d1c d0bd c4a1 863c 8e53 81bc
000003e0: 2857 9e3d a21b c93c 5737 3f3d 7b3c 67bd
000003f0: 3b70 0dba a7b2 78bd 12da b33d e5fb 383d

layers.layer_3.bias f4 [64]
-0.05625303 -0.0012114474 -0.020630414 -0.030614613 0.07502714 -0.06151839 0.008586746 0.12919536
-0.17858154 -0.0027750272 0.08865816 -0.034975898 -0.020074967 0.026302349 -0.104076 -0.122513875
0.041838635 -0.032296386 0.00030462662 -0.03881173 -0.09411528 0.17690192 -0.0011970048 0.09321907
-0.07549662 0.026321579 -0.03769512 0.116208486 0.111255385 0.109864295 0.053165883 0.077166475
0.04748397 0.12838507 0.06952145 -0.07299992 0.28465366 0.03283965 -0.07334332 -0.04254375
-0.09811221 0.2419232 0.038209435 0.12191605 0.0064776884 -0.04525146 -0.033146136 -0.041616645
-0.004305227 0.29346362 0.09269174 0.16707413 0.008048157 0.089275785 0.24627379 -0.115230955
0.024450252 0.021589484 0.011248615 -0.1420489 0.027647931 0.03741645 -0.027287241 -0.28293532
00000000: 9469 66bd 6ec9 9eba 1d01 a9bc 7fcb fabc
00000010: d4a7 993d b5fa 7bbd 6caf 0c3c ca4b 043e
00000020: 14de 36be 3bdd 35bb 6992 b53d e342 0fbd
00000030: 4274 a4bc 0678 d73c cc25 d5bd 8ee8 fabd
00000040: fd5e 2b3d 3749 04bd 4bb6 9f39 0cf9 1ebd
00000050: 83bf c0bd c725 353e d1e4 9cba a4e9 be3d
00000060: f99d 9abd 5aa0 d73c 3366 1abd b7fe ed3d
00000070: ddd9 e33d 8800 e13d 78c4 593d 7509 9e3d
00000080: 8d7e 423d 6077 033e 4361 8e3d fb80 95bd
00000090: 20be 913e de82 063d 0635 96bd 5b42 2ebd
000000a0: 0eef c8bd b7ba 773e 7f81 1c3d 1faf f93d
000000b0: ca42 d43b 9859 39bd 3ec4 07bd 3776 2abd
000000c0: dd12 8dbb dd40 963e 2bd5 bd3d 7b15 2b3e
000000d0: 6bdc 033c 39d6 b63d 322f 7c3e 35fe ebbd
000000e0: e54b c83c 6edc b03c 1c4c 383c 4475 11be
000000f0: ea7d e23c fe41 193d 7e89 dfbc e6dc 90be

layers.layer_4.weight f4 [64, 64]
-0.089656 0.23696171 -0.052967533 -0.092416435 -0.09521937 0.112057604 -0.098494425 -0.070711784
0.018195882 0.0041725743 0.23263484 0.015474304 -0.106813736 -0.065147765 -0.11364225 0.15570796
0.042910762 -0.07948936 0.12732074 -0.0750122 0.027517322 0.09217815 -0.09228997 -0.074634016
0.06706022 0.056177206 -0.18407479 0.027614351 0.20973125 -0.11694582 0.013221822 -0.014705097
0.17784685 0.0970199 -0.067790315 -0.07067998 -0.00506375 -0.09654783 0.08290036 -0.068775326
0.054550633 -0.10765101 -0.059423216 -0.05702813 -0.013725326 -0.103902444 0.084627956 -0.08935063
0.078165054 -0.10421384 0.016154498 -0.07460931 0.20359239 0.00055402657 -0.030963754 0.1636193
-0.05911202 0.1817704 0.0001752657 0.009615694 0.1465851 0.05858952 0.020069778 -0.084416255
-0.08839184 -0.044565585 0.11796227 -0.025417883 -0.1303343 0.0171013 -0.17682262 -0.09374794
0.07540289 -0.11895236 -0.053555924 -0.016243322 0.14303786 0.009059477 -0.14226653 -0.16048773
0.06761122 0.08593444 0.09512324 -0.113663204 -0.04406571 0.16733605 0.108605325 0.09560187
0.04261261 0.08119586 0.18688387 0.06862256 0.014906058 0.052610893 0.16582559 -0.011062403
0.05825051 0.0550734 0.12614249 0.014821477 -0.018618492 0.06415709 -0.028429268 0.021540396
-0.13323641 -0.0014361737 -0.049903054 0.093451805 0.15043452 -0.02276393 -0.0054712323 -0.07050059
-0.11081806 -0.07962438 0.079940595 -0.1501748 0.122510836 -0.11724216 0.08692274 -0.0982892
0.117028296 0.04667284 0.01906238 -0.037721086 -0.10157005 -0.09330629 -0.08394609 0.04145526
-0.28492746 0.121373005 -0.008010498 -0.084231324 -0.18209031 -0.06220626 -0.12748343 -0.268019
-0.07249938 -0.0684574 -0.3105397 0.009923588 0.082608424 -0.047291137 -0.0028833041 0.011003392
0.21163678 -0.001794228 -0.074806094 -0.14453213 0.057620034 0.24587582 -0.15317303 0.07996316
-0.004399893 0.22271465 0.23390563 0.27231145 0.08542945 0.08647614 0.023149358 -0.10012704
-0.08610806 -0.07544098 -0.021621872 -0.088057674 -0.058654305 0.13214241 -0.16265593 -0.026137337
-0.08128774 0.19809091 0.12629141 0.07998903 -0.05648297 0.02322377 -0.113747306 0.06164888
-0.013920361 -0.10653291 0.037031975 0.015617213 0.12537469 -0.1832657 -0.14705856 0.023678567
0.10105243 -0.14124972 0.15695322 -0.025294775 0.08397417 0.121966176 -0.101193175 0.14616695
0.1118237 -0.11299154 -0.057336338 -0.12258672 0.08173392 -0.16399178 0.04519806 0.24463789
0.06480757 -0.02469359 -0.0668787 -0.06503105 -0.08583997 0.17537123 -0.102178805 -0.042474225
-0.050644033 -0.14002794 0.057354715 0.11328068 0.012775485 -0.04367026 -0.08551729 0.0066212364
0.025762448 -0.14217468 -0.10911492 -0.12862372 -0.14877221 0.02783915 -0.20785885 -0.018913502
-0.15843715 0.16428034 0.123302795 -0.24045011 0.045539487 -0.16173548 -0.040305633 -0.087178
0.16459842 0.060983084 -0.3169302 0.059431788 0.00076916453 0.09988283 -0.13020729 0.116171226
0.20052259 0.23561987 0.012178936 0.1779746 -0.2376891 0.26202264 -0.1278573 -0.19823995
0.027095707 -0.07800091 0.0048457617 0.066253394 -0.028516453 -0.060535766 0.047305964 -0.22412188
00000000: 919d b7bd 17a6 723e 7cf4 58bd d444 bdbd
00000010: 6002 c3bd 757e e53d 72b7 c9bd 57d1 90bd
00000020: 880f 953c 17ba 883b d437 6e3e ef87 7d3c
00000030: 29c1 dabd 316c 85bd 45bd e8bd e871 1f3e
00000040: 32c3 2f3d 51cb a2bd 5e60 023e ff9f 99bd
00000050: 026c e13c e6c7 bc3d 8602 bdbd b8d9 98bd
00000060: de56 893d 121a 663d 1a7e 3cbe 7e37 e23c
00000070: cac3 563e 4a81 efbd 57a0 583c a6ed 70bc
00000080: 7c1d 363e 5fb2 c63d a6d5 8abd aac0 90bd
00000090: d0ed a5bb deba c5bd aac7 a93d 14da 8cbd
000000a0: 7c70 5f3d 2278 dcbd c265 73bd 5496 69bd
000000b0: 31e0 60bc ceca d4bd 6c51 ad3d 77fd b6bd
000000c0: 0015 a03d 116e d5bd 7056 843c c4cc 98bd
000000d0: 867a 503e 183c 113a b3a7 fdbc d18b 273e
000000e0: 721f 72bd 0522 3a3e 87c7 3739 258b 1d3c
000000f0: 681a 163e 91fb 6f3d 6069 a43c 6ee2 acbd
00000100: c806 b5bd 678a 36bd 3496 f13d 2a39 d0bc
00000110: 5b76 05be 0718 8c3c fd10 35be ecfe bfbd
00000120: d56c 9a3d 4b9d f3bd 755d 5bbd b710 85bc
00000130: 8478 123e 336e 143c 51ae 11be e556 24be
00000140: c077 8a3d 65fe af3d f9cf c23d 41c8 e8bd
00000150: 3f7e 34bd 245a 2b3e 786c de3d eaca c33d
00000160: 8f8a 2e3d 044a a63d 7c5e 3f3e fc89 8c3d
00000170: 8a38 743c 857e 573d 2fce 293e 153f 35bc
00000180: 1698 6e3d a594 613d 7f2b 013e c8d5 723c
00000190: cf85 98bc cb64 833d 7fe4 e8bc 7c75 b03c
000001a0: 206f 08be fe3d bcba 2567 4cbd a963 bf3d
000001b0: 820b 1a3e 6c7b babc 0648 b3bb 9d62 90bd
000001c0: 94f4 e2bd 1b12 a3bd e5b7 a33d 6cc7 19be
000001d0: f6e6 fa3d a81c f0bd 8d04 b23d d94b c9bd
000001e0: 88ac ef3d 052c 3f3d b528 9c3c 6d81 1abd
000001f0: f503 d0bd 5e17 bfbd edeb abbd fecc 293d
00000200: 03e2 91be 6992 f83d 773e 03bc 7981 acbd
00000210: e275 3abe fecb 7ebd 048b 02be c939 89be
00000220: 8e7a 94bd 6533 8cbd 0fff 9ebe 8b96 223c
00000230: 9b2e a93d 5ab4 41bd d1f5 3cbb 9247 343c
00000240: 50b7 583e 4d2c ebba f033 99bd 3b00 14be
00000250: fc02 6c3d dfc6 7b3e 64d9 1cbe bac3 a33d
00000260: fa2c 90bb 4f0f 643e f584 6f3e 686c 8b3e
00000270: a3f5 ae3d 671a b13d b9a3 bd3c 680f cdbd
00000280: 6c59 b0bd cd80 9abd 5a20 b1bc 9557 b4bd
00000290: 7f3f 70bd 5750 073e 478f 26be f81d d6bc
000002a0: 307a a6bd 58d8 4a3e 8952 013e 4ad1 a33d
000002b0: b05a 67bd c73f be3c 59f4 e8bd 8983 7c3d
000002c0: 3a12 64bc ed2d dabd d7ae 173d 57df 7f3c
000002d0: 3962 003e 01aa 3bbe 8596 16be 8ef9 c13c
000002e0: 94f4 ce3d c4a3 10be 58b8 203e fd36 cfbc
000002f0: a6fa ab3d 67c9 f93d 5e3e cfbd caac 153e
00000300: d303 e53d 1c68 e7bd 82d9 6abd bf0e fbbd
00000310: 1d64 a73d 76ed 27be 9a21 393d 5b82 7a3e
00000320: d5b9 843d 364a cabc b3f7 88bd 002f 85bd
00000330: decc afbd 8494 333e 1f43 d1bd 74f9 2dbd
00000340: 1e70 4fbd 7c63 0fbe c7ec 6a3d b3ff e73d
00000350: 4550 513c 96df 32bd b023 afbd f5f6 d83b
00000360: c50b d33c 3d96 11be a577 dfbd f0b5 03be
00000370: be57 18be ee0e e43c f3d8 54be 7df0 9abc
00000380: 593d 22be 1b39 283e 2d86 fc3d 8e38 76be
00000390: 9d87 3a3d fc9d 25be 8517 25bd 618a b2bd
000003a0: 7d8c 283e 66c9 793d ad44 a2be bf6e 733d
000003b0: c2a1 493a 5f8f cc3d 0f55 05be 2eeb ed3d
000003c0: cb55 4d3e 5646 713e 298a 473c f93e 363e
000003d0: c564 73be d527 863e 06ed 02be 6aff 4abe
000003e0: d1f7 dd3c f1be 9fbd 32c9 9e3b dcaf 873d
000003f0: 569b e9bc 5af4 77bd e6c3 413d 3580 65be

layers.layer_4.bias f4 [64]
-0.15193051 0.18180254 0.3708695 -0.16874069 -0.51361936 0.072961465 -0.13254836 0.20605999
-0.24526839 0.25469786 0.014111492 -0.18702568 0.018178375 -0.09312144 -0.2681561 -0.32727394
0.10740511 -0.17005438 0.052750874 0.0469888 0.012372725 0.022158502 0.12019171 0.29035974
-0.17375629 0.23460466 -0.1313281 -0.2610969 0.026909824 -0.061001837 -0.26420617 0.10455511
-0.061330937 -0.23130675 0.19594409 -0.259263 0.00978209 0.30200398 -0.22995502 -0.14542054
0.22535925 -0.22384588 -0.31878582 0.15831675 0.09935999 0.030081471 -0.2229845 0.060500037
-0.043600876 0.2036776 -0.069529556 -0.04799705 0.0631088 -0.12281567 0.080381565 -0.10337753
0.09066767 0.03061931 -0.10498352 0.22568476 -0.10954174 0.019693602 -0.07706336 -0.039173096
00000000: ac93 1bbe 722a 3a3e 9be2 bd3e 5cca 2cbe
00000010: 8f7c 03bf d26c 953d c2ba 07be 6401 533e
00000020: a327 7bbe c267 823e e333 673c a983 3fbe
00000030: d1ea 943c 74b6 bebd c24b 89be 7390 a7be
00000040: 36f7 db3d bc22 2ebe 4d11 583d 5477 403d
00000050: f8b6 4a3c bf85 b53c 1227 f63d 08aa 943e
00000060: 2bed 31be 343c 703e e07a 06be 7eae 85be
00000070: fe71 dc3c 10dd 79bd 0846 87be fd20 d63d
00000080: 2636 7bbd addb 6cbe 91a5 483e 1fbe 84be
00000090: 0f45 203c 44a0 9a3e 5479 6bbe 1fe9 14be
000000a0: 93c4 663e db37 65be e537 a3be c91d 223e
000000b0: 407d cb3d 6b6d f63c 0c56 64be e3ce 773d
000000c0: d596 32bd dc90 503e 8365 8ebd 8e98 44bd
000000d0: 303f 813d c886 fbbd 179f a43d 99b7 d3bd
000000e0: f9af b93d 59d5 fa3c 9a01 d7bd e819 673e
000000f0: 6b57 e0bd 7a54 a13c 65d3 9dbd f873 20bd

layers.layer_5.weight f4 [64, 64]
-0.08816345 -0.1755195 -0.1004331 0.12543909 -0.038454063 0.02557678 0.057728197 -0.16771425
0.15818511 -0.07121405 -0.09309212 0.050209228 0.14075415 -0.06833845 0.16848662 -0.22275442
-0.2413183 0.22169234 -0.21811499 0.1251046 0.105243415 0.12381384 -0.07385609 0.0077714203
0.12607878 -0.14912838 0.075693116 -0.06070879 -0.059056904 -0.16907011 -0.04402032 0.057416596
-0.19605412 0.33002084 -0.099419005 0.15261252 -0.047876492 -0.05941505 -0.23193425 0.1461871
0.10842728 0.1236571 0.20426825 0.07944872 -0.021986613 0.09680821 0.22601612 -0.035832882
0.20531486 -0.11180137 -0.17218454 0.005158838 -0.1766417 0.086682685 -0.029036904 -0.008037138
-0.29693788 0.120032996 -0.23883103 -0.15920816 -0.30102578 0.056831803 0.21802582 -0.12309571
0.1380214 0.10433126 0.0722145 -0.16299611 0.041417524 0.06445152 0.0456439 0.25507125
-0.116769336 -0.11223605 0.17486449 -0.101198025 -0.054159626 0.10288031 -0.06951709 -0.016915029
0.024326285 -0.11060919 0.12626636 -0.07880388 -0.13888055 -0.048113506 0.15646762 0.095775805
0.00048179607 -0.13802567 0.008716776 0.01657316 -0.07737552 0.16718622 -0.051685397 -0.045620527
0.18120907 -0.071011096 0.013460012 -0.07594716 -0.024243036 -0.10787526 0.29366526 -0.22564967
-0.13846959 -0.008549065 -0.11899895 -0.02552998 0.08823116 0.041774314 -0.015475634 0.0014856942
-0.11649902 -0.026076498 0.09779361 0.13947341 -0.055350937 -0.1304854 0.10128714 0.17318988
0.10280904 -0.086974666 -0.06148907 0.10689979 0.28093493 -0.108177796 -0.07933061 0.068890564
-0.1835998 -0.09769502 -0.13777669 0.07954685 -0.028288567 0.08639951 0.15886556 -0.10070008
-0.027555292 0.04586661 -0.06591789 0.24134865 0.09284354 -0.19507205 0.023707751 -0.015056395
-0.09174243 0.15385063 -0.19882263 -0.018711077 -0.069447994 0.01402076 -0.24438947 -0.0867326
0.10454938 -0.11662449 -0.04585238 0.060476057 0.09107603 0.16482574 -0.08760654 0.030267123
-0.19575512 0.2451512 0.048948634 -0.004564147 -0.12598638 0.025140809 -0.08097463 0.13519414
0.2776017 -0.01693249 0.07456637 -0.16785952 -0.12075579 0.05882402 0.0032340018 0.044297047
0.21323714 0.013139119 -0.21048424 -0.1116883 0.035637323 0.07938973 -0.09787447 -0.21866623
-0.1335916 0.048361007 -0.18547365 -0.13382426 -0.2576557 -0.08629015 0.11778441 0.0034292236
0.08609345 0.06364581 0.27307183 -0.27791733 -0.089787155 -0.035133474 -0.19288328 0.26507536
-0.07740716 0.10092016 0.25384971 -0.18049592 -0.013028991 0.031495217 -0.00451019 0.1378925
0.07129297 -0.27031493 0.25013992 0.06874801 -0.02474663 0.018888544 0.09682385 0.037418645
-0.18305749 -0.040524278 0.124969035 0.102908485 -0.025991388 0.09139218 -0.02485318 -0.108915195
0.12746778 -0.31594983 0.14175604 -0.011149867 -0.00066892384 0.0530225 0.18402651 -0.02952024
-0.2934853 -0.16263014 -0.10486915 -0.020659195 -0.04215347 0.12440147 -0.08215408 -0.06274257
-0.0633648 0.13265018 0.25135088 0.062739834 0.13369958 -0.078988366 0.12277756 0.05687323
0.30413285 -0.24540074 0.074788325 -0.01504391 0.22037406 0.022655688 -0.084265776 0.076943524
00000000: 0a8f b4bd 62bb 33be deaf cdbd 1b73 003e
00000010: 0282 1dbd 6586 d13c 6774 6c3d 49bd 2bbe
00000020: 47fb 213e acd8 91bd 15a7 bebd 31a8 4d3d
00000030: db21 103e 07f5 8bbd c287 2c3e bc19 64be
00000040: 251c 77be 5103 633e 8959 5fbe 6c1b 003e
00000050: dc89 d73d 1c92 fd3d dd41 97bd 66a7 fe3b
00000060: cc1a 013e 1cb5 18be fe04 9b3d c8a9 78bd
00000070: a7e5 71bd b720 2dbe a74e 34bd aa2d 6b3d
00000080: 69c2 48be 7ef8 a83e 319c cbbd 7546 1c3e
00000090: 241a 44bd 325d 73bd 2c80 6dbe 12b2 153e
000000a0: 1f0f de3d ef3f fd3d b22b 513e 03b6 a23d
000000b0: 451d b4bc 6243 c63d c570 673e 80c5 12bd
000000c0: 0f3e 523e 1ef8 e4bd 2551 30be 780b a93b
000000d0: 90e1 34be b186 b13d cdde edbc 33ae 03bc
000000e0: 3e08 98be dcd3 f53d 1f90 74be 7707 23be
000000f0: 0d20 9abe 77c8 683d 2942 5f3e 9b19 fcbd
00000100: 7b55 0d3e a1ab d53d 32e5 933d 74e8 26be
00000110: 6ca5 293d 29ff 833d 19f5 3a3d b398 823e
00000120: c324 efbd 04dc e5bd ad0f 333e e940 cfbd
00000130: 7cd6 5dbd e9b2 d23d fa5e 8ebd 6391 8abc
00000140: eb47 c73c 1287 e2bd f84b 013e ee63 a1bd
00000150: b436 0ebe ab12 45bd 0c39 203e 1b26 c43d
00000160: 9399 fc39 9a56 0dbe cfd0 0e3c 70c4 873c
00000170: 0e77 9ebd dd32 2b3e 11b4 53bd 97dc 3abd
00000180: df8e 393e 446e 91bd 6287 5c3c 2f8a 9bbd
00000190: 5599 c6bc b4ed dcbd 4b5b 963e b510 67be
000001a0: f9ca 0dbe 6111 0cbc b9b5 f3bd 4024 d1bc
000001b0: 8ab2 b43d 8b1b 2b3d 838d 7dbc a0bb c23a
000001c0: 0a97 eebd 619e d5bc 0448 c83d 1ed2 0e3e
000001d0: aab7 62bd f79d 05be a26f cf3d b058 313e
000001e0: 8c8d d23d c61f b2bd f7db 7bbd 47ee da3d
000001f0: b4d6 8f3e 528c ddbd 1678 a2bd 7f16 8d3d
00000200: 9601 3cbe 5414 c8bd 5515 0dbe 75e9 a23d
00000210: 6dbd e7bc 3af2 b03d a7ad 223e d83b cebd
00000220: a3bb e1bc a0de 3b3d f5ff 86bd 1a24 773e
00000230: c124 be3d f8c0 47be c236 c23c 19af 76bc
00000240: 75e3 bbbd 058b 1d3e 2998 4bbe f947 99bc
00000250: c03a 8ebd 54b7 653c 3c41 7abe dda0 b1bd
00000260: fc1d d63d d2d8 eebd b5cf 3bbd beb5 773d
00000270: 1286 ba3d 14c8 283e 0f6b b3bd c2f2 f73c
00000280: 0874 48be eb08 7b3e 5d7e 483d d78e 95bb
00000290: 9302 01be 19f4 cd3c 07d6 a5bd 5570 0a3e
000002a0: cf21 8e3e 01b6 8abc 41b6 983d 5ee3 2bbe
000002b0: d04e f7bd 75f1 703d 8cf1 533b d270 353d
000002c0: d65a 5a3e 7645 573c 2e89 57be d6bc e4bd
000002d0: 71f8 113d 1597 a23d 6972 c8bd 0aea 5fbe
000002e0: 3dcc 08be 3116 463d ceec 3dbe 3a09 09be
000002f0: 73eb 83be e4b8 b0bd f438 f13d d3bc 603b
00000300: c351 b03d bc58 823d 12d0 8b3e 2e4b 8ebe
00000310: 54e2 b7bd 1ee8 0fbd 3283 45be f5b7 873e
00000320: a587 9ebd 3baf ce3d 97f8 813e ecd3 38be
00000330: 8d77 55bc 2101 013d 37ca 93bb b133 0d3e
00000340: 0c02 923d b866 8abe 5712 803e c2cb 8c3d
00000350: 72b9 cabc 26bc 9a3c 954b c63d 4b44 193d
00000360: 6c73 3bbe c9fc 25bd c4ef ff3d afc1 d23d
00000370: e4eb d4bc d32b bb3d e598 cbbc ee0e dfbd
00000380: ea86 023e 2dc4 a1be 7f28 113e efad 36bc
00000390: b85a 2fba 1f2e 593d 7271 3c3e 6ed4 f1bc
000003a0: b543 96be 8488 26be a3c5 d6bd 793d a9bc
000003b0: 1ea9 2cbd 33c6 fe3d 6640 a8bd 2d7f 80bd
000003c0: 67c5 81bd 73d5 073e 10b1 803e be7d 803d
000003d0: 8be8 083e a7c4 a1bd cd72 fb3d e7f3 683d
000003e0: 4db7 9b3e 554a 7bbe 9f2a 993d bb7a 76bc
000003f0: bda9 613e 6c98 b93c 8993 acbd 9194 9d3d

layers.layer_5.bias f4 [64]
-0.531486 0.30395982 -0.21093547 0.38035914 -0.27481848 -0.31354067 0.33345827 0.5986363
0.31483182 0.3279549 0.12892136 0.098117806 -0.059569303 0.026546042 0.21252415 0.107458055
0.28572387 -0.3273487 -0.32843223 -0.61481947 0.009446845 0.40075785 -0.07746337 0.3117404
-0.16605315 -0.5340936 0.23861131 -0.141547 0.26224893 -0.53572756 0.30619973 0.38848123
0.043716054 0.17505804 -0.1919826 -0.29033422 -0.12642899 -0.13396455 -0.3008365 0.42910698
0.025780044 -0.44239318 -0.075927146 0.28658152 -0.08305889 0.08897619 -0.46016514 0.43965676
0.15633672 -0.62063897 -0.0063369996 -0.24494006 -0.26080087 -0.1863157 -0.3236819 0.30022013
-0.3530848 -0.113339126 0.2866727 0.40520462 -0.012396757 0.43825418 0.45865533 0.1538736
00000000: 770f 08bf 9fa0 9b3e 78ff 57be 6fbe c23e
00000010: 02b5 8cbe 6788 a0be 0bbb aa3e 3b40 193f
00000020: a331 a13e b4e9 a73e f603 043e fdf1 c83d
00000030: f1fe 73bd 1677 d93c ee9f 593e f812 dc3d
00000040: 664a 923e 409a a7be 4528 a8be cf64 1dbf
00000050: f1c6 1a3c 2230 cd3e 1ea5 9ebd 709c 9f3e
00000060: d609 2abe 5cba 08bf 8656 743e b2f1 10be
00000070: 7e45 863e 7125 09bf 36c6 9c3e 03e7 c63e
00000080: 9b0f 333d 6a42 333e 1697 44be b0a6 94be
00000090: 9a76 01be 012e 09be 3e07 9abe e9b3 db3e
000000a0: ac30 d33c 5c81 e2be b17f 9bbd d0ba 923e
000000b0: c81a aabd 2639 b63d c49a ebbe b11a e13e
000000c0: bc16 203e 32e2 1ebf 9ba6 cfbb 91d1 7abe
000000d0: b187 85be 8bc9 3ebe a2b9 a5be 74b6 993e
000000e0: 88c7 b4be 581e e8bd c4c6 923e fb76 cf3e
000000f0: c41b 4bbc da62 e03e dfd4 ea3e 0a91 1d3e

layers.layer_6.weight f4 [2, 64]
-1.182812 1.8257034 -1.3611089 1.4818044 -0.08407782 -0.79092926 0.5569174 1.1233076
0.5378706 0.37652302 -0.030400952 -0.23055814 -0.7087865 -0.5634764 -0.22575329 -0.48643902
0.030230604 0.002214671 -0.43127897 -1.3363769 0.29929394 1.477457 -0.37182876 -0.21643458
-0.66653615 -0.38795513 0.6541459 -0.9403074 1.124576 -0.31983978 1.6294742 1.0442988
0.9587843 0.70761836 -1.0720224 0.045277942 -0.50046664 -1.0551695 0.15139584 1.1027316
0.0003712608 -1.6355767 -0.713472 1.1254325 -0.5966936 0.25050074 -1.5801309 0.77056557
1.0390766 -1.3531917 0.8806807 -0.6757087 -0.38503796 -1.2946792 -1.6949674 0.8606007
-0.11743627 -0.049611457 0.34985825 0.72224194 -0.5447595 -0.053202648 0.1688737 0.27041125
1.196661 -2.2415462 1.9823557 -1.503001 -0.5113154 0.6259698 -0.6197026 -0.76985157
-1.1390525 -0.49562174 -0.36807746 0.12002341 1.1093595 0.7975971 0.5573442 0.77080315
0.2615546 -0.31029353 0.086603284 0.71922797 0.3541052 -1.03928 0.79738706 0.07549607
-0.035606556 0.11356727 -0.59924257 2.0239158 -1.0263839 0.37105477 -1.7314845 -1.312011
-1.1676039 -0.86674064 1.5769484 -0.70458835 0.21018451 1.48203 -0.31281263 -1.120483
-0.62485456 1.6549622 1.3388841 -0.7685962 1.7649343 0.26887864 1.6311238 -1.058288
-1.3504624 0.6121399 -1.1069857 1.3889841 0.18866798 2.0666947 1.366582 -0.88048476
-0.37538156 0.36229172 -0.65739906 -0.23253545 0.31088576 0.07227964 -0.2210042 -0.19136065
00000000: 6266 97bf a6b0 e93f d138 aebf c4ab bd3f
00000010: fe30 acbd 577a 4abf 2492 0e3f 8bc8 8f3f
00000020: e3b1 093f a0c7 c03e 6b0b f9bc 6f17 6cbe
00000030: 0873 35bf fd3f 10bf df2b 67be 890e f9be
00000040: 2ca6 f73c 0424 113b 99d0 dcbe 660e abbf
00000050: 0e3d 993e 501d bd3f 5760 bebe 07a1 5dbe
00000060: 1da2 2abf 0ea2 c6be 1b76 273f fcb7 70bf
00000070: 1bf2 8f3f 0ac2 a3be 9c92 d03f 95ab 853f
00000080: e372 753f 7a26 353f 0838 89bf 5d75 393d
00000090: 951e 00bf cb0f 87bf 8307 1b3e 4f26 8d3f
000000a0: c8a5 c239 945a d1bf 1aa6 36bf 2c0e 903f
000000b0: e9c0 18bf a241 803e bb41 cabf c943 453f
000000c0: 7600 853f 6335 adbf 4a74 613f 3ffb 2cbf
000000d0: b223 c5be 0cb8 a5bf b1f4 d8bf 5450 5c3f
000000e0: 6d82 f0bd 6235 4bbd 9f20 b33e d9e4 383f
000000f0: 5c75 0bbf 05eb 59bd 3aed 2c3e 5873 8a3e
00000100: 302c 993f 7e75 0fc0 d5bd fd3f 5662 c0bf
00000110: 91e5 02bf 8f3f 203f d4a4 1ebf fe14 45bf
00000120: 79cc 91bf 22c2 fdbe a674 bcbe d5ce f53d
00000130: 7eff 8d3f 532f 4c3f 1cae 0e3f 5b53 453f
00000140: 7cea 853e cbde 9ebe 105d b13d 531f 383f
00000150: 474d b53e 2107 85bf 8f21 4c3f af9d 9a3d
00000160: 2ed8 11bd f595 e83d f667 19bf d687 0140
00000170: 8c60 83bf e4fa bd3e 49a1 ddbf faef a7bf
00000180: 0b74 95bf b7e2 5dbf 72d9 c93f e75f 34bf
00000190: 9c3a 573e 29b3 bd3f fa28 a0be fd6b 8fbf
000001a0: 78f6 1fbf cdd5 d33f 8e60 ab3f b8c2 44bf
000001b0: 5ee9 e13f 76aa 893e aac8 d03f fb75 87bf
000001c0: f4db acbf 33b5 1c3f b5b1 8dbf 3bca b13f
000001d0: 2e32 413e ba44 0440 29ec ae3f 7367 61bf
000001e0: 0332 c0be 4d7e b93e 4e4b 28bf c61d 6ebe
000001f0: 6b2c 9f3e 5907 943d ed4e 62be 0cf4 43be

layers.layer_6.bias f4 [2]
2.6526506 -4.0855465
00000000: 07c5 2940 ccbc 82c0
